recommend-model/models/cocktail_model.pth (torch, 252338 bytes, 14 tensors)

fc1.weight f4 [256, 100]
000000 50 82 5b bd f1 76 2d bd 8a b0 48 bd 7c d5 dd bd
       -0.053591073 -0.04234976 -0.048996486 -0.108317345
000010 03 10 8c 3d fe 9b b0 be 87 75 b2 3c d2 b4 c2 bc
       0.068389915 -0.34494013 0.021784557 -0.023767862
000020 e4 c3 ea bc 6d ce 52 bd bf 59 61 bd e8 f2 ff 3a
       -0.028657861 -0.051466394 -0.05501723 0.0019527348
000030 7f 09 3a be 1f 29 ba 3d a8 df b7 bc 34 8c bf bc
       -0.18167685 0.090898745 -0.022445515 -0.023382284
000040 ef de 7f 3b 98 c2 d5 bc ef 38 9b 3c b5 f9 03 3b
       0.003904279 -0.026093766 0.018948046 0.002013785
000050 41 85 90 bd a6 ea 73 3b d7 4a dc 3d 6c 5e bf bb
       -0.07056666 0.0037218719 0.10756462 -0.0058401134
000060 cc 65 d2 3c d1 88 de bd ae 8f 10 3d 22 84 d2 bc
       0.025683306 -0.108659394 0.035293274 -0.025697771
000070 fa 7c c6 bc 33 89 a0 bb 5e 54 f5 3c f4 89 c0 3c
       -0.024229515 -0.004899168 0.029947456 0.023503281
000080 2c a9 82 3c 03 28 2f be 11 6b 36 bd df 06 d6 bc
       0.015949808 -0.17105107 -0.0445357 -0.026126323
000090 12 12 3c 3c 70 13 ea 3b 0f 9c dd bd d5 64 f4 3b
       0.011478918 0.0071434304 -0.108207814 0.007458309
0000a0 c4 f4 1f be 56 e4 88 bd 62 20 5c bc a9 c6 97 bd
       -0.15620714 -0.066841766 -0.013435455 -0.07410938
0000b0 88 34 80 bd 02 3c 87 be 6d 07 1e bd 2c d6 e3 bd
       -0.062600195 -0.2641297 -0.0385813 -0.111248344
0000c0 d4 ee 8d 3d 68 89 35 bd e2 64 27 3d eb bf 36 bd
       0.069303185 -0.044320494 0.040867694 -0.04461662
0000d0 84 b0 d9 3d c2 2b c5 bb 33 f3 01 3d e3 b5 90 bc
       0.10629371 -0.006017179 0.031726073 -0.017664855
0000e0 d7 2b 9d 3c 3e e8 58 3c 82 9d db 3c f1 fd 75 3d
       0.019185944 0.013238965 0.026808504 0.06005663
0000f0 3d b7 34 bd d2 25 77 bd c6 9f 96 3b 1f ec a3 3c
       -0.044120062 -0.060338803 0.004596683 0.020010052
000100 8f 93 af bd 2c 13 78 3d e9 53 a3 bb 58 57 24 3d
       -0.085730664 0.06056516 -0.004984368 0.04012236
000110 eb 76 29 be f5 57 a0 bd 46 82 34 3d 57 1a 2d bd
       -0.1654927 -0.078292765 0.04406955 -0.042261448
000120 20 cc da 3b fc 38 65 3d 87 14 c1 bc ca e4 e3 3c
       0.0066771656 0.055962548 -0.023569359 0.027819056
000130 ff be ed bd a0 0e 0c be cc f8 d1 3c 30 d2 43 bd
       -0.11608695 -0.13677454 0.02563133 -0.047807872
000140 48 30 3f bc c1 07 91 bd bb 37 72 be 50 ed 2b bc
       -0.011669226 -0.07081557 -0.23654072 -0.010493591
000150 a2 56 ac bd df 65 4c bc c7 c5 72 3c 60 13 c4 bc
       -0.084149614 -0.01247546 0.014817662 -0.02393502
000160 19 d5 d2 bd 74 53 3f bd c7 64 2f bd 7d 52 be bc
       -0.102945514 -0.046710446 -0.04282072 -0.023232693
000170 64 56 45 be 70 88 ce 3c 10 dc 52 bd 97 af 52 3c
       -0.19271237 0.025211543 -0.0514794 0.012859247
000180 cb 1a 70 3c e1 57 e6 bb 5d 5d 11 3d 63 bd 43 3c
       0.014654825 -0.007029519 0.03548943 0.011947009
000190 8c 69 99 bd 7e e8 7d 3d 10 98 bd 3d 55 ea 3c bd
       -0.074908346 0.0619893 0.09257519 -0.046121914
0001a0 bd 4f 7f 3c 2f 14 e6 3d 3a 37 e6 3b a7 44 67 bd
       0.015582976 0.112343185 0.0070256265 -0.056461956
0001b0 d3 02 cb bd 7d e9 15 bd 2b f2 75 bd 64 cd 8a 3c
       -0.09912648 -0.036599625 -0.060045402 0.016943641
0001c0 5c 37 28 3d 37 9a 37 bd c9 56 50 3d 02 ca 7c 3c
       0.04106842 -0.044824805 0.050864015 0.015429022
0001d0 27 84 81 3d 85 1d 69 bd 41 c7 8a 3d 25 f7 37 bd
       0.06324034 -0.056912918 0.06776286 -0.04491343
0001e0 b7 56 9d bd c1 35 0a 3d 30 28 bf 3c bd fd c9 bc
       -0.07682555 0.03374267 0.023334593 -0.024657125
0001f0 cb 15 7d 3d 2b 37 c8 3d 09 72 ed bd f9 19 de 3c
       0.06178836 0.097761475 -0.11594016 0.027111994
000200 bc 6d 56 3d 25 98 77 3d 76 42 3f bd 23 48 b2 ba
       0.052350745 0.06044783 -0.04669424 -0.0013601821
000210 a8 23 91 3d 7e 95 22 3d 95 2c 63 3d ec 79 e4 3d
       0.07086879 0.039693348 0.05546244 0.11156067
000220 78 30 6e 3c c0 2d a1 bc 82 ee 7d 3d f6 62 46 be
       0.014537923 -0.019675136 0.061995037 -0.19373688
000230 4f 58 d4 3c fb ce 70 3d bd 1c f8 bd 35 5d 32 bd
       0.025921015 0.058791142 -0.121148564 -0.04354592
000240 31 b7 82 bc c6 c4 46 3b 3a 60 75 3d 7e 41 86 3d
       -0.015956493 0.0030329688 0.059906222 0.065554604
000250 12 26 86 be 1c d7 5c 3d 4b e1 77 bb 55 14 e6 bd
       -0.2620092 0.05391608 -0.0037823494 -0.11234347
000260 45 0d f3 3d 8a e3 af 3d 9b f5 b0 bc 41 65 18 be
       0.11867765 0.085883215 -0.021601489 -0.14882375
000270 2a ef cd 3d 5e 6d 43 3d 3c 65 44 bc 7f d3 f4 bd
       0.100553825 0.047711723 -0.011987027 -0.11954402
000280 4d a3 93 bc 78 f1 9e bd bc a5 fb 3d 61 7e aa bb
       -0.018022204 -0.077609 0.12287471 -0.005203054
000290 da 30 f6 bd fa f4 9d bc 5f 07 48 3c 96 93 35 bd
       -0.120210364 -0.019281853 0.012208789 -0.044330202
0002a0 66 24 2b 3c 2e 37 01 3d 29 23 b8 bc b5 d1 d6 bc
       0.01044569 0.031546764 -0.022477703 -0.026223043
0002b0 8c d9 93 3d 15 11 7b bd 14 cc 76 3d 7c 2d eb 3d
       0.07219228 -0.061295588 0.060253218 0.11483285
0002c0 f5 42 53 bd 46 cb 32 be 33 81 80 3d 23 ad ad bd
       -0.051577527 -0.17460355 0.06274643 -0.08480289
0002d0 b2 4e 23 bb 62 d4 2c bd b2 ac 8c 3c e7 9a f4 bc
       -0.0024918732 -0.04219473 0.017172191 -0.02985902
0002e0 53 92 8f bd 1d 18 22 bd ab 41 89 3c 85 70 a5 3b
       -0.07010331 -0.039573777 0.016754946 0.0050488138
0002f0 c7 39 d8 bc bd 42 81 bd e4 76 bd 3d af a8 5a 3d
       -0.026394738 -0.063115574 0.09251192 0.053383525
000300 d2 cc a3 3d 7e 7a 8a 3d c2 3c 27 bd 56 01 7f bd
       0.07998051 0.06761645 -0.040829428 -0.062257133
000310 19 8b 8a 3b 7c f2 02 bc a7 20 02 bc 4d d0 fe bd
       0.0042280075 -0.007992383 -0.007942355 -0.12442074
000320 61 44 13 bd 84 bd c0 bd 5c 8c cf 3d ef a0 86 bd
       -0.035953883 -0.09411147 0.10134193 -0.065736644
000330 81 5d e5 ba 4f 47 d4 bd 40 6e 96 bd ef 24 40 bd
       -0.001749918 -0.103651635 -0.07345247 -0.046910223
000340 94 bf 1c bd cd d9 8e 3c 0f 63 8e bd 21 7a 67 3d
       -0.03826864 0.01743784 -0.06952488 0.056512956
000350 57 7b a2 bc 7a c0 0e 3c 4c e5 49 3c 9e 05 93 bc
       -0.019834204 0.008712882 0.012322735 -0.017947014
000360 87 da 66 bc bc c4 13 be 68 7b 80 3d 51 f2 26 be
       -0.014090187 -0.14430517 0.06273538 -0.16303374
000370 a9 e2 99 ba 4c 14 87 3d 65 cd 28 3c bb 1e 00 bd
       -0.0011740524 0.06595668 0.010302876 -0.031279307
000380 ef 62 18 3e 59 c7 82 3c a7 f8 ec 3c df 4e 5c 3d
       0.1488149 0.015964197 0.02892716 0.053786155
000390 1f ce 80 3d b5 95 6d bd 24 89 a1 3d c5 c3 26 3c
       0.062893145 -0.0580041 0.078874856 0.010178511
0003a0 7c 59 db bb 68 0f 82 3b 9c 59 25 bd b7 b3 38 bd
       -0.006694017 0.0039691217 -0.04036866 -0.045093264
0003b0 71 be 21 be 60 e0 00 3e 13 c2 39 3d 68 89 bc 3c
       -0.15795304 0.12585592 0.0453511 0.02301474
0003c0 77 4b 24 3d 40 3e 96 bd f8 9d 55 3d 5f ff 82 3d
       0.04011103 -0.07336092 0.052152604 0.063963644
0003d0 6e 64 a6 3d 83 fc d8 bd 0e a8 79 ba 8c 4a d3 3c
       0.08124624 -0.10595038 -0.00095236383 0.025792383
0003e0 07 82 21 3e f2 5b 4a 3d 37 50 5f bd a3 44 83 3d
       0.15772258 0.049404092 -0.05451986 0.06409576
0003f0 f7 72 b2 3d c2 bf a8 3d e1 be 77 3b 32 9a ca bc
       0.08713334 0.082397 0.0037802982 -0.02473173

fc1.bias f4 [256]
000000 e1 ec 7b bc b2 24 91 bd 02 11 c7 3c 59 bf 00 3d
       -0.015376301 -0.07087077 0.024300102 0.031432483
000010 5b 70 84 3d 2d bd a7 3d 8e 34 d0 bd bc df b6 3c
       0.064667426 0.08190379 -0.10166274 0.022323482
000020 4e b5 30 bd c1 66 b6 3d 68 a4 88 bc fa 02 13 bd
       -0.043141656 0.089063175 -0.016679958 -0.03589151
000030 e5 0a 40 3c 6a 73 ad bd 1f b0 60 3c 0b a4 9c 3c
       0.011721347 -0.08469279 0.013713866 0.01912119
000040 ce 72 b0 3c f4 fe 0e 3c 45 35 85 bd fc 6e f6 bc
       0.021539118 0.008727778 -0.06504301 -0.030082218
000050 a7 0c a0 bd 13 4f c2 bd e4 01 98 3c 58 6a 7d 3d
       -0.07814913 -0.094877385 0.018555589 0.061868995
000060 f7 17 77 bd f9 a8 1b bc 1d 48 52 bd a8 e7 c1 3d
       -0.06032559 -0.009500735 -0.051338304 0.09468013
000070 a0 d1 69 bc 70 19 cd 3d c6 6e 96 3d 8f eb aa 3d
       -0.01427117 0.100146174 0.07345347 0.083457105
000080 0f 93 4c bd 3a 3e 98 3d 02 41 27 3d ef ae e1 3c
       -0.049944934 0.07433744 0.04083348 0.027549235
000090 e5 f0 04 bd 82 21 76 bd 7e 97 99 ba c6 41 a3 3d
       -0.032456297 -0.06009055 -0.0011718122 0.0797153
0000a0 28 fa 56 bc 2d 7f 4c bd 80 81 e5 bb bd 42 bb bd
       -0.013121165 -0.04992597 -0.007003963 -0.09143589
0000b0 14 92 92 bd 99 62 65 bc a8 0a 70 bd e9 d1 aa bd
       -0.071567684 -0.014000558 -0.058603913 -0.083408184
0000c0 d5 6f 37 bd 97 87 50 bd 62 36 09 bb ea 7b 5c bd
       -0.044784386 -0.05091056 -0.0020936956 -0.05382911
0000d0 64 5e 46 bc 95 95 c9 bd fa b5 f9 3b 01 73 cc 3d
       -0.012107465 -0.09842984 0.0076205702 0.09982873
0000e0 8a 5d b5 3d 1e 03 32 bd ac 5e 88 3d e1 cc 93 3d
       0.08855732 -0.043460004 0.06658682 0.07216812
0000f0 a9 72 aa 3c af 5a 73 bd 66 3b 73 bd 95 41 28 3d
       0.020806627 -0.059412654 -0.05938282 0.04107817
000100 fd 1f d9 3c 1b 56 31 bd 9d 8d 05 3d 80 e2 ff bb
       0.026504511 -0.043295007 0.032605756 -0.0078089833
000110 b5 82 54 3d 0f f4 a9 3d 46 cd e0 3c ad 5f a1 bc
       0.051882464 0.082985036 0.027441632 -0.019698942
000120 78 cd 21 bd 70 61 0e bd 3f a9 a9 3d 5d a2 cd 3b
       -0.03950259 -0.034760892 0.08284234 0.0062754587
000130 62 28 b7 bc d7 e0 92 bd d4 4e 58 3d c4 ff ec bc
       -0.022358123 -0.07171791 0.05280955 -0.028930552
000140 db 30 af bd 6a 2c bc bd 0e 9f a0 bd d1 2c 8d bc
       -0.0855424 -0.09188159 -0.07842837 -0.017233284
000150 75 c0 61 bd 7e 0e a6 3d 50 03 4c bc 1b 9d 1f bb
       -0.055115182 0.08108233 -0.012451962 -0.0024355117
000160 06 44 56 3d 15 a0 2f bb 04 c6 a3 3d b1 9e 98 3d
       0.052310966 -0.0026798297 0.07996753 0.07452143
000170 10 19 b4 bd 57 ee a2 bd c4 ad 77 3d 4f 8d 6a 3d
       -0.08793843 -0.07955616 0.06046845 0.05726367
000180 a0 4f 27 bd f2 61 d1 3d 0f a9 88 3d a2 88 48 3d
       -0.04084742 0.1022376 0.0667287 0.04895843
000190 f4 d2 b6 3b d5 ab 71 3d 1e 75 a9 3d eb 1c 6b 3d
       0.005579347 0.059001762 0.082742915 0.057400625
0001a0 0f fd f2 3c 74 ba 2e 3d 15 e1 98 bd 91 71 ac bd
       0.029661683 0.042658284 -0.07464806 -0.084200986
0001b0 0f 99 bb bd 21 71 79 3d af 05 7c 3d 3d e0 86 bd
       -0.09160053 0.060898904 0.061528858 -0.06585739
0001c0 0a 7c 7a 3d 74 03 b1 bc 73 96 af bd 32 c9 af bc
       0.06115345 -0.021608092 -0.08573618 -0.021458242
0001d0 28 33 b5 bc c8 c0 97 3d 87 ae f1 3c c8 b6 c1 bd
       -0.02211912 0.07409817 0.029502166 -0.09458691
0001e0 b8 b0 b6 bd e8 65 98 bc 8c 75 af bd e0 6e 94 bd
       -0.08920425 -0.01860328 -0.08567342 -0.0724771
0001f0 98 45 3b 3d 44 af 04 bc f9 a9 b8 3d 36 ff b2 bc
       0.045720667 -0.008098427 0.09016795 -0.02185021
000200 e7 dc 9c bd eb e8 9b 3b d0 57 d8 bc 63 ca 72 3d
       -0.07659321 0.0047579906 -0.02640906 0.059275042
000210 b6 3a 32 3c bc cf 6c bd 8f b5 bc bd e5 d8 6f bd
       0.010878256 -0.0578153 -0.09214317 -0.058556456
000220 2f 37 c6 3d 59 a0 77 3d 5e 52 51 3d bd 9c c6 bd
       0.09678494 0.060455654 0.051103942 -0.09697864
000230 54 79 35 3d df 5f 85 bd 76 a3 75 3d f3 db aa 3d
       0.04430516 -0.065124266 0.05997034 0.08342733
000240 32 57 33 bd c5 25 af bc 46 52 98 bd 28 5b 4c bd
       -0.043784328 -0.021380315 -0.074375674 -0.04989162
000250 b2 c6 9d 3d dd ef 09 bd 1e f6 d2 3c 42 1e a5 bd
       0.07703914 -0.033676017 0.025752123 -0.08062412
000260 e6 89 f0 bc 55 6a 88 3d fe cb 42 3c 34 40 54 bc
       -0.02936263 0.06660906 0.011889456 -0.01295476
000270 a7 10 b5 bd 6c 9c eb bc b1 c0 4b 3d fa 04 ab bd
       -0.08841067 -0.028761111 0.04974431 -0.083505586
000280 f2 37 85 bb b7 20 9d 3d 9a 5f 61 3d 84 5d 99 3d
       -0.004065507 0.076722555 0.055022813 0.0748854
000290 35 a9 bf 3d 47 c8 b7 bd 3f 02 60 bd 2e 4c 9d bd
       0.093584456 -0.08973747 -0.054689642 -0.07680546
0002a0 d9 c7 c9 3c 0b 23 9a 3d 1d e9 a8 3d 33 fa e0 bc
       0.024631428 0.07526215 0.08247588 -0.027463054
0002b0 2e d7 8c 3c 2e 59 a1 3d 52 02 29 bd 46 ae 86 3d
       0.01719245 0.07878338 -0.04126198 0.06576209
0002c0 42 77 c2 3d 57 a4 f2 3c d8 79 5d bd bd e5 d9 3c
       0.09495403 0.029619379 -0.054071277 0.026598806
0002d0 44 e3 81 3c d1 b9 ba bd c5 29 e4 bc d4 d8 7c 3d
       0.015855439 -0.09117473 -0.027851949 0.06173022
0002e0 eb c1 ba bd e4 b3 17 bc 47 13 10 bd 42 82 f8 bb
       -0.09119018 -0.009259198 -0.035174634 -0.0075838873
0002f0 c0 93 49 bd d7 b8 55 3d 78 0d c1 bc 1c 72 98 bd
       -0.04921317 0.05217823 -0.023565993 -0.0744364
000300 26 70 b6 3d 75 c3 07 3d 3b 0e 89 3c 78 da 22 3d
       0.08908109 0.033145387 0.016730418 0.03975913
000310 13 77 4f bd a3 54 af bd 13 bd 85 3d 28 a7 08 bd
       -0.050650667 -0.08561065 0.06530204 -0.033362538
000320 ac bf f0 3c 4a 9c b3 bd 47 58 6e 3c d5 e5 33 3d
       0.029388271 -0.08770044 0.014547414 0.043920357
000330 cd a3 85 3d 2e c7 36 bd 64 86 21 bd 1b 0d ac bd
       0.06525383 -0.044623546 -0.039434806 -0.08400937
000340 64 12 5a 3c ce 90 52 bd 3c 83 c1 bd 3e b4 1f 3d
       0.013310049 -0.051407628 -0.09448859 0.03899025
000350 4f 07 b8 3d 6e e2 5a bd 85 84 b9 bd e1 cd 87 bc
       0.08985769 -0.053438596 -0.09058479 -0.016577663
000360 3d a2 ed 3c ab ce f8 bc 60 13 d0 bd 7a bc 54 3d
       0.029008025 -0.030371984 -0.101599455 0.051937558
000370 e0 bd bd 3c 67 3d 35 3d 09 99 2a bb de 21 b4 3d
       0.023161829 0.04424801 -0.0026031157 0.08795522
000380 eb 9d 70 bd e3 29 6d bc 12 7a 31 39 52 ac b5 bd
       -0.058744352 -0.014475319 0.0001692551 -0.08870758
000390 9f fe 2b bd e7 f2 71 3d d3 01 8f bd 69 3a 76 bc
       -0.041990872 0.05906954 -0.0698277 -0.0150285745
0003a0 94 17 9d 3d e1 59 94 3b 9e e4 31 bd 40 48 d4 bc
       0.07670513 0.004527316 -0.043430917 -0.025913358
0003b0 67 d6 87 3d 04 9a 7b 3d 20 c0 2c bd 40 f0 5f bc
       0.06632691 0.061426178 -0.042175412 -0.01366812
0003c0 70 42 f9 bc ff 8f 0c 3d c4 1a 4a 3d b3 be c3 bd
       -0.030427188 0.034317013 0.049341932 -0.09557857
0003d0 c6 47 18 bd 59 a0 06 3d cf e9 b1 3d df f9 c2 bd
       -0.037177823 0.032867763 0.086871736 -0.095203154
0003e0 03 7e 4e 3d 69 59 5e 3d 7d 70 60 bd 4b 3b 8b bd
       0.050413143 0.054284487 -0.054794777 -0.067984186
0003f0 de 43 8b bd 41 5a ba 3c 59 40 97 bd 2c f7 c3 bc
       -0.06800054 0.022748115 -0.0738532 -0.023921572

batch_norm1.weight f4 [256]
000000 b7 e9 80 3f 1a 1e 81 3f 2e a0 76 3f 70 b4 6e 3f
       1.0071324 1.0087311 0.96338165 0.93244076
000010 a3 41 82 3f ee b1 77 3f 03 27 80 3f e2 4b 83 3f
       1.0176281 0.96755874 1.0011905 1.0257533
000020 02 1c 83 3f 7a fc 89 3f 9c a9 87 3f 46 22 83 3f
       1.0242922 1.0780175 1.0598636 1.0244834
000030 90 ed 7f 3f 7d 73 79 3f 02 42 87 3f 1d 54 71 3f
       0.99971867 0.97441846 1.0567019 0.9426897
000040 14 39 87 3f 70 54 82 3f fc a0 71 3f 3c 72 84 3f
       1.0564294 1.0182018 0.9438627 1.0347362
000050 07 bd 74 3f 41 a1 83 3f 48 9c 7c 3f 37 b5 79 3f
       0.9560093 1.0283586 0.98675966 0.97542137
000060 91 c7 77 3f a3 27 85 3f 8c 4b 76 3f 40 ee 89 3f
       0.9678889 1.0402721 0.96209025 1.0775833
000070 0a 37 71 3f 97 21 81 3f fe 5c 80 3f 9a ae 84 3f
       0.9422461 1.0088376 1.0028379 1.0365784
000080 0b bc 81 3f df db 7a 3f 4d af 88 3f b2 1f 83 3f
       1.0135511 0.97991747 1.0678498 1.0244048
000090 7b 28 88 3f 3a 96 72 3f af 1e 6f 3f de 86 6f 3f
       1.0637354 0.9476048 0.93406194 0.93565166
0000a0 29 b8 85 3f ec 6c 77 3f cb 8a 81 3f c9 c0 7e 3f
       1.0446826 0.96650577 1.0120481 0.99512917
0000b0 cd 8b 80 3f d3 a6 60 3f fc da 73 3f a0 45 83 3f
       1.0042664 0.87754554 0.9525602 1.0255623
0000c0 76 0a 7d 3f b6 19 87 3f 51 3b 6c 3f c9 e7 82 3f
       0.9884409 1.0554721 0.9227801 1.0226985
0000d0 9d 11 7e 3f cc 83 80 3f fb d5 87 3f b9 77 7a 3f
       0.99245626 1.0040221 1.0612177 0.9783893
0000e0 4a a5 84 3f 51 c3 83 3f 24 b4 83 3f 14 a5 81 3f
       1.0362942 1.0293981 1.028935 1.0128503
0000f0 21 63 76 3f a6 11 83 3f 33 83 87 3f 5e 0f 6e 3f
       0.9624501 1.0239761 1.0586914 0.929922
000100 ae d1 83 3f 0d 97 74 3f 1e 27 81 3f 00 40 80 3f
       1.0298364 0.95542985 1.0090063 1.0019531
000110 cc fe 7a 3f 28 d8 85 3f 22 89 78 3f 62 5d 77 3f
       0.9804504 1.0456591 0.9708425 0.96626866
000120 c7 e8 85 3f aa e9 85 3f ed 6a 8a 3f 88 a6 81 3f
       1.0461663 1.0461934 1.0813881 1.0128946
000130 51 37 74 3f 16 f0 7f 3f e9 09 88 3f 88 3d 78 3f
       0.95396906 0.9997572 1.0628024 0.9696889
000140 d0 8f 83 3f 1f 3c 85 3f e8 72 7f 3f c5 5f 76 3f
       1.0278263 1.0408973 0.9978471 0.9623988
000150 db 24 87 3f 9c c8 82 3f 97 13 7d 3f ed 57 71 3f
       1.0558122 1.0217471 0.98858017 0.9427479
000160 b4 28 69 3f 9d 59 74 3f 6b 22 86 3f 9d 92 7d 3f
       0.91077733 0.9544924 1.0479254 0.9905184
000170 65 5f 7d 3f 48 0e 81 3f 4f 6c 78 3f 46 f5 74 3f
       0.98973686 1.0082483 0.97040266 0.9568676
000180 05 fc 7f 3f 81 4f 77 3f b1 af 72 3f 8c 5a 7d 3f
       0.99993926 0.9660569 0.94799334 0.9896629
000190 e7 36 86 3f e4 19 7b 3f 24 d5 85 3f 95 c4 7b 3f
       1.0485505 0.9808638 1.045567 0.98346835
0001a0 3e f0 80 3f 6a 56 6a 3f 13 f9 70 3f a0 d4 85 3f
       1.0073316 0.9153811 0.9413006 1.0455513
0001b0 62 b2 73 3f 68 f2 85 3f 19 df 87 3f 98 dc 7e 3f
       0.95194066 1.0464602 1.0614959 0.9955535
0001c0 cc c5 78 3f 8e 30 78 3f c7 71 81 3f 23 b9 83 3f
       0.97176814 0.9694909 1.0112847 1.0290874
0001d0 0d 36 6f 3f 3b 45 82 3f 93 82 7c 3f d8 cb 5f 3f
       0.9344185 1.0177377 0.9863674 0.87420416
0001e0 e2 ac 8b 3f a1 8e 77 3f 8c 99 7e 3f 3d f1 81 3f
       1.0912135 0.9670201 0.99453044 1.0151745
0001f0 5c dd 76 3f 06 79 7a 3f 50 e1 81 3f d9 72 85 3f
       0.9643152 0.9784092 1.0146885 1.0425674
000200 89 dd 6f 3f 33 f1 78 3f ba dd 7c 3f c7 fe 72 3f
       0.9369741 0.9724304 0.9877583 0.9492001
000210 63 6d 7e 3f c8 e3 83 3f 79 90 7b 3f df b4 75 3f
       0.9938566 1.0303888 0.9826732 0.9597911
000220 eb e6 70 3f f7 18 6f 3f 11 3a 87 3f d1 08 73 3f
       0.9410235 0.9339747 1.0564595 0.9493533
000230 bd 49 79 3f 8b f0 85 3f c9 d9 6d 3f a1 e9 88 3f
       0.9737814 1.0464033 0.9291044 1.0696298
000240 75 ae 81 3f a7 8f 86 3f 07 7d 84 3f 43 62 7d 3f
       1.0131365 1.0512589 1.0350655 0.9897806
000250 05 bc 6e 3f a9 8e 80 3f 0f d9 83 3f d6 ba 75 3f
       0.93255645 1.0043536 1.0300616 0.95988214
000260 24 48 75 3f 49 2f 82 3f e1 7e 7c 3f 28 ef 7a 3f
       0.958132 1.017068 0.986311 0.98021173
000270 86 83 83 3f 3c 00 82 3f ed f3 75 3f b9 08 83 3f
       1.0274513 1.0156322 0.96075326 1.0237037
000280 46 f2 7e 3f c9 97 82 3f cc 8a 87 3f 5f 1e 76 3f
       0.9958843 1.0202571 1.0589232 0.9614009
000290 11 5d 70 3f 79 45 82 3f 9a cc 5e 3f a9 44 81 3f
       0.9389201 1.0177451 0.8703095 1.0099078
0002a0 86 e7 82 3f 81 63 77 3f 97 35 6f 3f cb 57 83 3f
       1.0226905 0.96636206 0.93441147 1.0261167
0002b0 24 86 78 3f 72 66 7b 3f 85 c6 6c 3f a5 c3 86 3f
       0.9707968 0.98203194 0.92490417 1.0528456
0002c0 5f 2c 7c 3f 7f 42 80 3f f3 a7 81 3f cb 2f 82 3f
       0.98505205 1.0020293 1.0129379 1.0170835
0002d0 0b 34 7d 3f e2 3b 81 3f 8b ee 86 3f c3 c6 7f 3f
       0.98907536 1.00964 1.0541548 0.9991266
0002e0 86 0e 7d 3f 4e ed 72 3f 76 36 7e 3f f0 ed 84 3f
       0.98850286 0.9489335 0.9930185 1.0385113
0002f0 92 e1 80 3f cc dc 81 3f 0b 25 7d 3f fb d9 71 3f
       1.0068839 1.0145507 0.9888465 0.94473237
000300 cf 77 8d 3f ad 04 78 3f b6 d7 69 3f be f4 7c 3f
       1.1052188 0.96882135 0.91344774 0.98810947
000310 be f3 85 3f 9a ea 76 3f 98 2a 73 3f a0 56 79 3f
       1.0465009 0.96451724 0.9498687 0.97397804
000320 f0 6f 7e 3f 7f 82 75 3f 66 90 7d 3f 45 40 89 3f
       0.99389553 0.95902246 0.9904846 1.0722739
000330 83 b8 83 3f 8d 38 83 3f 88 ba 71 3f 21 ae 77 3f
       1.0290684 1.0251633 0.9442525 0.96750075
000340 35 99 6e 3f f2 cb 8d 3f 22 d2 81 3f 07 78 83 3f
       0.93202525 1.1077864 1.0142252 1.0271004
000350 56 88 81 3f f8 aa 82 3f 23 fe 85 3f d3 87 7d 3f
       1.0119731 1.0208426 1.0468181 0.99035376
000360 00 a9 7a 3f aa 7b 8a 3f 21 c9 6d 3f c2 3c 6f 3f
       0.97914124 1.0818989 0.92885023 0.93452084
000370 04 06 8d 3f 89 09 73 3f 95 35 6f 3f fc 7c 74 3f
       1.1017461 0.94936424 0.93441135 0.9550321
000380 d0 3f 7b 3f 00 0d 80 3f 45 ac 82 3f 5b 13 7b 3f
       0.98144245 1.0003967 1.0208822 0.9807641
000390 b4 a9 67 3f ca 02 70 3f 09 14 80 3f 81 b6 85 3f
       0.9049332 0.93754256 1.0006114 1.0446321
0003a0 83 e2 7d 3f 72 70 75 3f 67 69 7b 3f 21 ee 71 3f
       0.99173754 0.958747 0.98207706 0.9450398
0003b0 d8 7b 76 3f 31 8c 84 3f 5d c5 80 3f 52 52 82 3f
       0.9628272 1.0355283 1.006023 1.0181372
0003c0 94 7b 75 3f 86 95 7e 3f 35 1d 89 3f ae f3 89 3f
       0.9589169 0.99446905 1.0712038 1.077749
0003d0 58 4e 8b 3f c6 07 89 3f a5 6d 73 3f 1e d6 81 3f
       1.0883284 1.0705497 0.9508918 1.0143468
0003e0 ac 16 83 3f 24 82 82 3f 8f 3b 84 3f 6f 04 85 3f
       1.0241294 1.0195966 1.0330676 1.0391978
0003f0 67 bb 85 3f 11 f7 83 3f 18 e5 80 3f b5 00 78 3f
       1.0447816 1.0309774 1.0069914 0.9687608

batch_norm1.bias f4 [256]
000000 24 62 16 be c0 87 61 bd b2 cb cb bd 59 3e 38 be
       -0.14685875 -0.055061102 -0.09950961 -0.17992534
000010 1f 10 af bd 91 55 f4 bd 92 7b 17 be cb 41 49 bd
       -0.08547997 -0.11930383 -0.14793232 -0.04913501
000020 08 4b b6 bd d6 0c c2 bd 9d 99 ba bb 20 81 0e be
       -0.0890103 -0.094751045 -0.0056945817 -0.13916445
000030 33 f1 98 bd 6e 10 f2 bd 70 2e 94 bd 78 ec 1f be
       -0.0746788 -0.1181954 -0.0723542 -0.1561755
000040 57 02 c8 bd f9 2c fc bd dd c6 38 bd a3 9c 1c bd
       -0.09766071 -0.12313265 -0.045111526 -0.038235318
000050 7b 96 84 bd 57 1c 1a bd de 5e 04 be ff a6 66 bd
       -0.06474014 -0.037624683 -0.12926814 -0.056311604
000060 fc 50 24 be 75 4d 19 be 7a 11 1c be 54 38 87 bd
       -0.16046518 -0.14970954 -0.15241042 -0.066025406
000070 12 f4 ae bd 70 b5 05 be ad 29 d9 bd d9 d1 22 be
       -0.085426465 -0.13057494 -0.10603652 -0.15900363
000080 c6 bf d7 bd 5d 30 80 bd d7 5c 9e bd 9d 44 97 bc
       -0.10534625 -0.062592246 -0.077325515 -0.018465335
000090 80 c4 8f bd 98 0f 8c bd 98 66 05 be ff 59 04 be
       -0.07019901 -0.06838912 -0.13027418 -0.12924956
0000a0 25 18 2b be 04 f5 ea bd 4f 46 e0 bd 23 c9 6a bd
       -0.16708429 -0.11472514 -0.1095091 -0.057320725
0000b0 cb 74 34 be 44 6e 91 bd e6 cf 31 be fc 81 ca bd
       -0.17622678 -0.071011096 -0.17364463 -0.09888074
0000c0 19 f7 d0 bd 34 b2 dc bd 25 47 e4 bd b9 c8 0e be
       -0.1020338 -0.10776177 -0.11146382 -0.13943757
0000d0 3d 4b 21 bd 74 1c d5 bd 1a de 8c bd 03 92 14 be
       -0.039378393 -0.10405818 -0.068783 -0.14508824
0000e0 20 56 0e be 7e bb d6 bd 2a 02 d2 bd 6a af e9 bd
       -0.13900042 -0.1048498 -0.10254319 -0.11410411
0000f0 4a 8e e6 bd 8d 28 8a bd 3b ae 24 be 21 2d 05 be
       -0.11257608 -0.06746016 -0.16082089 -0.13005497
000100 b6 bb f5 bd f8 1d e6 bd 44 77 fb bd 3d 3e c7 bd
       -0.11998694 -0.11236185 -0.122786075 -0.09728668
000110 23 04 05 be a9 4e cc bd db d5 09 be 25 64 1a be
       -0.1298986 -0.09975941 -0.13460486 -0.15077265
000120 71 02 8e 3c 78 2b 00 be 00 6f d5 bc da 20 cd bd
       0.017335149 -0.12516582 -0.026053905 -0.100160316
000130 56 86 a1 bd d8 32 ae bd c3 db f5 bd 35 39 0d be
       -0.07886951 -0.085057914 -0.12004807 -0.13791354
000140 80 cf 4b bd 1f 1b 26 be 1d d0 5b bd 34 7d 71 bd
       -0.049758434 -0.16221283 -0.05366527 -0.058957294
000150 8d 3a 9e bd 96 82 9b bd 71 5f 5f bc 2e b7 a0 bd
       -0.077260114 -0.07593267 -0.013633595 -0.07847439
000160 ba 30 f4 bd cb b7 dc bd a1 c6 6a bd ea 56 97 bd
       -0.11923356 -0.10777243 -0.057318334 -0.073896244
000170 56 56 e1 bd 0e 50 0e be 6a 3f 5e be 61 11 ce bc
       -0.110027954 -0.13897726 -0.21703878 -0.025154771
000180 dc 03 b8 bd 63 22 95 bd fb 21 d3 bd 52 e9 9a bd
       -0.08985111 -0.07281949 -0.10309216 -0.075640336
000190 67 8f bf bd 59 42 0b bd 41 ff 98 bd 64 ff b5 bd
       -0.09353524 -0.03399882 -0.07470561 -0.088866025
0001a0 da 6c a4 bd 49 29 ff bd 0d 0d 6b bd da 3d cd bd
       -0.08028574 -0.124590464 -0.057385493 -0.10021563
0001b0 c8 ec 1f be 45 bd ad bd 36 f7 df bd f2 a0 1b be
       -0.15617669 -0.08483366 -0.109358236 -0.15198115
0001c0 16 c1 ec bd e9 9d c8 bd 1d 81 bc bb b0 2c 8f bd
       -0.11560266 -0.09795744 -0.005752696 -0.06990945
0001d0 97 50 de bd ae 34 aa bd 69 d7 b6 bd 81 ec 27 be
       -0.10855215 -0.08310829 -0.08927805 -0.16398813
0001e0 f3 99 9a bd 8f f4 ef bd 85 b0 8c bd e8 49 51 be
       -0.07548895 -0.11716568 -0.06869606 -0.20438349
0001f0 0a 19 13 be 3e fe 1e be 69 aa a0 bd f7 aa 22 be
       -0.1436502 -0.15526673 -0.07845003 -0.1588553
000200 c8 42 d3 bd 34 ea 6a bd d6 06 c8 bc 99 e5 09 be
       -0.10315472 -0.05735226 -0.024417322 -0.13466491
000210 59 0a b3 bd 0e e8 5d bd 86 17 35 be 85 62 24 bd
       -0.08742208 -0.054176383 -0.17684755 -0.040133018
000220 bf 68 26 be ed b2 99 bd 9e ca 2b be 85 f0 05 be
       -0.16250895 -0.075048305 -0.16776511 -0.13080032
000230 c1 ab d7 bc 59 7b d3 bd 8b 00 28 bd ed 7d a9 bd
       -0.026327016 -0.10326261 -0.041016143 -0.082759716
000240 b4 f4 9a bd 57 d6 31 bd 8f f8 fd bd 4e 04 de bd
       -0.07566205 -0.0434173 -0.124009244 -0.10840665
000250 38 90 ee bd 20 1a 03 be 17 cf d8 bb 73 cf 11 be
       -0.11648601 -0.12802935 -0.006616484 -0.14239292
000260 1d 29 1d bd 9c 42 45 bd 17 c7 80 bd 89 71 9f bd
       -0.038369287 -0.048159227 -0.062879734 -0.07785327
000270 38 9c 22 be b9 5d e4 bd df 59 00 be 36 0f fc bd
       -0.15879905 -0.11150689 -0.12534283 -0.12307589
000280 4a 24 26 bd 2d 75 88 bd 3a c2 9e bd 0d 63 14 bd
       -0.04056195 -0.066629745 -0.077518895 -0.036227275
000290 d4 dd c2 bd d2 85 d1 bd f0 82 be bd 52 80 6f bd
       -0.095149666 -0.10230602 -0.09302318 -0.058471985
0002a0 26 a3 f4 bd 01 9b 90 3b d2 77 9d 3c 4a 20 dd bd
       -0.119451806 0.004413009 0.019222174 -0.10797174
0002b0 7e 16 9e bd 78 7d 13 be 24 6f 06 be 04 00 f7 bd
       -0.07719134 -0.14403331 -0.13128334 -0.1206055
0002c0 93 3a 99 bd c6 08 d6 bd 57 56 c7 bd 6e 29 cb bd
       -0.07481875 -0.10450892 -0.09733265 -0.099200115
0002d0 b1 e6 9f bd 8e d3 5b bd f8 0d 1e bd 81 9f cd bd
       -0.07807673 -0.05366855 -0.03858754 -0.100401886
0002e0 d5 a9 df bd 58 31 34 be 6d 50 02 be 34 40 ac bd
       -0.10921065 -0.17596948 -0.12725993 -0.08410683
0002f0 7e 23 c2 bd 84 72 99 bc 39 19 1f bd 26 e5 f1 bd
       -0.09479426 -0.018731363 -0.038842414 -0.11811285
000300 45 de ab bd ab 2c 5f bd b5 58 e9 bd 68 0e bc bc
       -0.08392004 -0.054485958 -0.11393873 -0.022956088
000310 9e 71 0b be ac 78 d6 bd 7d 2f 55 be 83 fa 3c be
       -0.1361756 -0.10472235 -0.20818897 -0.18454938
000320 a1 33 c1 bd 32 fc c3 bd a7 b7 83 bd 22 91 64 bd
       -0.094336756 -0.09569587 -0.06431513 -0.055802472
000330 49 23 a2 bd 9b 75 24 be f1 ec b0 bc 54 0a 09 be
       -0.07916886 -0.16060488 -0.021597357 -0.13382846
000340 0b 35 0a be c4 23 97 bd d0 b6 c0 bd dc 08 93 3c
       -0.13496797 -0.073798686 -0.09409869 0.01794856
000350 ab 48 d3 bd 12 13 f6 bd 2f c1 f0 bd 44 74 10 be
       -0.10316595 -0.12015356 -0.11755597 -0.14106852
000360 93 37 e2 bd 61 a8 b9 bd 05 43 fe bd 6a 6c b0 bd
       -0.11045756 -0.09065319 -0.12415127 -0.08614428
000370 75 ad 95 bd 90 17 94 bd ee f1 e5 bd 2b 08 56 bd
       -0.07308475 -0.07231057 -0.11227785 -0.052253883
000380 99 ec 9c bc 91 f1 14 be 28 ce b8 bd 1d 4f e6 bc
       -0.019155787 -0.14545275 -0.09023696 -0.028113896
000390 ff c5 b2 bd b5 74 1c be cd a9 05 be 3d 3d 46 be
       -0.08729171 -0.15278895 -0.13053055 -0.19359298
0003a0 1e c1 2f be cc 2e e5 bd 8c d5 d9 bd 52 18 9e bd
       -0.17163512 -0.111905664 -0.10636434 -0.077194825
0003b0 bf 81 83 bd 7e 29 d1 bd cc 03 33 be 94 56 64 bd
       -0.064212315 -0.10212992 -0.17481917 -0.05574663
0003c0 f7 11 de bd e3 7d 2a be d3 b2 a6 bd cf 88 e7 bd
       -0.1084327 -0.16649584 -0.08139577 -0.11305391
0003d0 74 8f ab bd 51 9a 7e bd 90 40 4d bc cd 6b bf bd
       -0.08376971 -0.062158886 -0.0125276 -0.09346733
0003e0 5d 33 e7 bd 4f 9b e6 bd 81 04 39 bd 7f 96 cb bd
       -0.11289094 -0.112600915 -0.04517031 -0.09940814
0003f0 fe a5 2a bd bc 08 ce bd 24 88 bf bd 89 de 24 be
       -0.04166221 -0.1006026 -0.09352139 -0.16100515

batch_norm1.running_mean f4 [256]
000000 b0 d4 55 3c da 9c d4 3c d4 ff 6c 3d 6b 9d 43 3d
       0.013051197 0.025953699 0.057861164 0.047757547
000010 c0 55 14 3c ca 48 f5 3d 7f 8c 49 3d a0 8a a9 3c
       0.0090536475 0.11976774 0.049206253 0.020695984
000020 8c 9d d8 bd 10 2d 8a 3d 0e 19 36 3c 3e f9 01 be
       -0.10576925 0.06746876 0.011114372 -0.12692735
000030 02 38 43 bd e2 67 ca bd 60 30 5d 3d 05 0f 8e bc
       -0.047660835 -0.09883095 0.054001212 -0.017341146
000040 3c 6c 29 3c 22 27 68 3d 57 45 15 bd 5c a4 44 3b
       0.0103407465 0.056677945 -0.03644308 0.0030005192
000050 70 45 ec bd 46 ba d1 bd 96 00 b9 bb 10 fd ee 3d
       -0.11536682 -0.10240607 -0.005645822 0.116693616
000060 4e f6 2b bc f2 4b d1 bc 99 c5 ca 3c 38 8c 2f 3d
       -0.010495735 -0.025548909 0.024752425 0.042858332
000070 c8 ff dd bc f2 c1 f9 3c ed 85 b6 3d 87 c1 be 3d
       -0.027099505 0.030487988 0.08912263 0.09314256
000080 25 f3 7f bd c0 c0 0c bb 30 73 0a bb 20 43 1c 3d
       -0.06248774 -0.0021477193 -0.0021125786 0.038149953
000090 88 a3 7c bc a8 c3 ae bd 92 09 7b 3d 02 e2 d0 3c
       -0.015419848 -0.08533412 0.061288424 0.025498394
0000a0 32 17 13 bd 17 28 fa bc c1 89 43 bd 73 96 ac bd
       -0.035910793 -0.030536694 -0.047738794 -0.084271334
0000b0 f0 68 8a bb 70 06 10 3c d3 e3 1d be 10 4c f4 3b
       -0.0042239353 0.008790597 -0.1541894 0.0074553564
0000c0 e4 43 45 bd dc 59 96 bd 9b e1 49 3c d3 ce a4 bd
       -0.04816045 -0.07341358 0.012321855 -0.08047261
0000d0 31 36 f1 bc 91 94 ad bd 6d b0 49 bd 9e 71 fc 3c
       -0.029444786 -0.084756024 -0.04924052 0.030815896
0000e0 69 6b 6e 3d 76 68 0d 3d 2a b9 91 3d 06 b9 a6 3d
       0.058207903 0.03452345 0.07115395 0.08140759
0000f0 44 f6 ef 3c 4a f5 8f bd 18 73 19 bd 86 c0 84 3c
       0.029292233 -0.07029207 -0.037463278 0.016205084
000100 04 7e 8f 3d 09 2c 82 3c f1 06 ce 3d b8 fa aa 3d
       0.070064574 0.015890138 0.10059918 0.08348602
000110 46 d5 b6 3d 7f f5 78 3d c5 c9 35 3d 3f 77 18 bd
       0.089273974 0.060781 0.044381876 -0.037223097
000120 fb 18 58 bd fc f1 0a be e0 ef 35 3d 1e 6e 41 3d
       -0.0527582 -0.13568872 0.044418216 0.047224157
000130 32 1b c1 bd 6c f8 59 3c 66 5f 9e 3d 68 ba a7 bc
       -0.09429015 0.013303857 0.077330396 -0.020474628
000140 61 da ca bd 0c 75 eb bd 54 86 fc bd f0 2a e1 3b
       -0.09904934 -0.11496934 -0.123303086 0.0068715736
000150 ad 04 9a bd 97 f7 11 3e 0e cb 71 bd 26 d0 78 bc
       -0.07520423 0.14254604 -0.05903154 -0.015186345
000160 f4 3f f5 bc c0 27 80 3d a6 72 dd 3c 9b e6 98 3d
       -0.029937722 0.06257582 0.027032208 0.074658595
000170 5c b3 d1 3b da 45 24 3c f6 f6 0d 3e ae aa a1 3d
       0.006399555 0.01002642 0.1386374 0.07893883
000180 24 31 14 bd 28 ac 54 3d ae 2c a1 3c 38 e1 d9 bc
       -0.036179677 0.051921993 0.019674625 -0.02659665
000190 da eb 6e bd 6f 58 f8 3d 2b 25 d0 bc 42 ee 8f 3d
       -0.058330394 0.12126242 -0.025408348 0.07027866
0001a0 fc 22 9e 3c 8d f6 6f bc e0 78 cc bd 56 6b a9 bc
       0.019303791 -0.014646185 -0.099839926 -0.020681065
0001b0 ac d7 ed bd 39 4d 3c bc ee e4 96 3d 3a 4d 44 bd
       -0.11613402 -0.011493021 0.073678836 -0.04792521
0001c0 80 b8 73 3d 40 1d 1a bc c0 44 05 be 05 1a bb 3c
       0.059502125 -0.009406388 -0.13014507 0.022839556
0001d0 e4 a5 07 3c 3a 23 b6 3d 54 b4 d9 3d 1f 24 81 bd
       0.0082792975 0.08893438 0.10630098 -0.06305718
0001e0 62 1f f2 bd ef 80 9a 3c ce 16 81 bd ea c5 d0 bd
       -0.11822392 0.018860308 -0.06303178 -0.10193999
0001f0 1f 2e bd 3d 40 db be 3d 3b ac 7b 3d 1f 1f af 3d
       0.092373125 0.09319162 0.06144355 0.08550858
000200 8a de c5 bd ee 1d 38 3d b8 65 d6 bc 2c 0f af 3c
       -0.096615866 0.04495042 -0.02617155 0.02136954
000210 3e f8 6e 3d 57 d6 0c be 74 84 da bd f4 ee 0f bd
       0.05834221 -0.13753639 -0.10669795 -0.035139993
000220 18 2a f9 3d c6 db bf 3c 7d 4c ef 3c 43 38 ed bd
       0.12166232 0.023420226 0.029211277 -0.11582997
000230 50 b3 70 bb ae 39 49 bd 56 48 a9 3d ce c4 91 3d
       -0.0036727972 -0.049127273 0.0826575 0.07117616
000240 b4 38 99 bd 1e bb 0d 3d ea 90 54 3c ed d3 82 3d
       -0.074815184 0.034602277 0.012974003 0.06388078
000250 1d a2 79 3d 7a 27 a1 bb e2 11 20 bd 57 96 8b bd
       0.06094562 -0.004918036 -0.039079554 -0.068157844
000260 d4 28 18 be 2b af 0c 3e 73 6f 29 3d 55 fe 48 bd
       -0.14859325 0.13738696 0.041366052 -0.049070675
000270 fa 19 09 bd d2 68 0d bb a0 1c de 3b f2 19 e2 bd
       -0.03347204 -0.002157737 0.0067783147 -0.11040105
000280 99 e2 5f bd da 1f 99 3d d8 3a 93 3d f2 99 d5 3d
       -0.05465946 0.07476778 0.07188958 0.10429753
000290 83 bd 09 3e f7 1f 94 bd 57 6d 11 be 3a 3d e7 bd
       0.13451199 -0.07232659 -0.14201866 -0.11290975
0002a0 ca 6b ca bd 1d 24 61 3b dc bc ff 3d da bc 60 bc
       -0.098838404 0.00343538 0.12487194 -0.013716901
0002b0 d8 6b 21 3d b8 55 88 3d 88 c6 85 3b 8a 6b a3 3d
       0.03940949 0.066569746 0.0040825047 0.07979496
0002c0 1e 26 cd 3d e6 41 86 3d db cb b5 bd 60 8a 06 bd
       0.10017036 0.06555538 -0.08876773 -0.03284681
0002d0 5f 47 da 3d d0 ae ab bd 4d 04 1d 3d 04 9b 3d 3d
       0.10658144 -0.08382952 0.03833418 0.046290413
0002e0 ad 5a ff bd 9a cd 9c bc 78 39 78 bc 39 0d 19 bd
       -0.12468467 -0.019141007 -0.01515042 -0.037366126
0002f0 28 74 e0 bd 52 57 56 bc ca c4 59 bd ca b0 c8 bd
       -0.10959655 -0.013082342 -0.05316619 -0.09799345
000300 8c fc e0 3c 2c b9 9c 3d 11 13 b1 bc d8 d4 5e 3d
       0.027464174 0.07652506 -0.021615537 0.054402202
000310 d4 24 6b bd 7d d6 83 3c fa c6 82 3d 19 f9 3b bd
       -0.05740817 0.016093487 0.06385608 -0.045891855
000320 88 35 8a bd 5f 45 cc bd ae 75 35 bd ef 51 0b bc
       -0.067484915 -0.09974169 -0.04430168 -0.008503421
000330 fc 83 4f 3d 3b 81 09 3c a1 65 cf 3d ac 6c ee bd
       0.05066298 0.008392627 0.10126806 -0.11641821
000340 c0 8d 5b ba 5e 3d a9 bd 03 4e 10 bd a6 2d a7 3d
       -0.00083753094 -0.08263658 -0.035230648 0.081630036
000350 f7 6e e4 3d 88 3e af bd 78 9b dd bd 4b 27 ed 3c
       0.11153977 -0.08556849 -0.10820669 0.0289494
000360 a9 be e1 bb 54 9b 7f bc d1 c7 0f 3c 3c 4e 09 3e
       -0.0068891835 -0.015600998 0.008775667 0.1340875
000370 a2 38 06 bd 2e ba 03 3d a6 40 c1 3d 99 20 3c 3d
       -0.032768853 0.032159977 0.09436159 0.045929525
000380 10 62 50 bd cf eb 8d bd 9d 78 91 bc 32 42 3e be
       -0.05087477 -0.069297425 -0.017757708 -0.18579939
000390 70 49 b2 bd 7e d8 54 3d bc 88 cf 3c a3 1d b2 bd
       -0.08705413 0.051964276 0.025333755 -0.08697059
0003a0 fd 20 22 3d 4e a0 8a 3c ec d8 41 bd 94 80 dd bc
       0.03958224 0.016922142 -0.047326013 -0.02703885
0003b0 19 7f e3 3d 91 db bf bc 2a ff 42 bd ed 68 c8 bc
       0.11108226 -0.023420127 -0.047606625 -0.024464095
0003c0 d4 ee 17 3d e8 b3 2d 3c 64 d3 64 3c 59 9a 17 bc
       0.037093 0.010601975 0.013966415 -0.009253108
0003d0 65 fc 27 bd fa 8c 91 3d c8 58 94 3d b4 3d cc bd
       -0.041012187 0.07106967 0.07243496 -0.099727064
0003e0 70 98 a3 3b 6b 0e a3 3c f9 d0 e7 3c 48 e3 dd bd
       0.004992537 0.019904336 0.028297888 -0.10834366
0003f0 bf 4d 09 be 83 77 1b 3d 14 15 b2 bc a6 ea a8 bc
       -0.13408564 0.037955772 -0.021738566 -0.020619702

batch_norm1.running_var f4 [256]
000000 26 07 03 3f d8 ff 10 3f 8c c3 04 3f d4 72 de 3e
       0.5118278 0.56640387 0.5186088 0.43446982
000010 16 0e 14 3f 0b 1f e2 3e dd 5c 02 3f 5a 13 e7 3e
       0.57833993 0.4416431 0.5092295 0.45131952
000020 9e bb 2c 3f 30 05 01 3f 40 0c 34 3f 6f cc 17 3f
       0.6747378 0.5039854 0.7033119 0.59296316
000030 f7 5d d3 3e 55 2d 0b 3f c7 b9 ee 3e 96 e7 fd 3e
       0.41282627 0.54366046 0.46626112 0.4959075
000040 e1 02 02 3f 29 53 eb 3e 5e 3a 28 3f 8b 9d b1 3e
       0.5078564 0.45961884 0.6571406 0.34690508
000050 87 94 f5 3e da 6d 39 3f 8d 4d 17 3f 34 ec 09 3f
       0.4796488 0.72433245 0.5910271 0.5387604
000060 ba 5e 14 3f b2 bd ff 3e c4 a0 0b 3f 32 28 c9 3e
       0.5795704 0.49949414 0.54542184 0.3928848
000070 50 d2 07 3f 07 ed 0b 3f 2b 90 0a 3f 9a 68 19 3f
       0.53055286 0.5465855 0.5412623 0.59925234
000080 af 44 23 3f bd 22 0f 3f 19 5f 1a 3f b0 94 ee 3e
       0.6377668 0.5591238 0.6030136 0.46597815
000090 56 81 05 3f 2b 83 d4 3e b6 a5 16 3f f6 72 0d 3f
       0.52150476 0.41506323 0.58846605 0.5525354
0000a0 24 58 ea 3e b9 f2 0b 3f 86 12 b1 3e 2d 03 f1 3e
       0.4577037 0.5466724 0.34584445 0.47072735
0000b0 58 8d c8 3e 12 5f 2b 3f eb 63 c7 3e 3d 86 e2 3e
       0.39170337 0.6694194 0.3894342 0.4424304
0000c0 94 db f3 3e 9f 0c 2f 3f ef 55 24 3f d4 ee aa 3e
       0.47628462 0.68378633 0.64193624 0.33385336
0000d0 b6 cd 1c 3f 06 8e b0 3e 1d 0d 1e 3f 8a 14 31 3f
       0.6125139 0.34483355 0.6173876 0.69171965
0000e0 fd 38 06 3f f6 f9 d1 3e 27 5f c6 3e c3 43 3c 3f
       0.5243071 0.41011018 0.3874447 0.73540896
0000f0 d6 5b f2 3e c0 5c 06 3f 96 71 04 3f f6 35 e8 3e
       0.4733569 0.52485275 0.5173582 0.4535367
000100 c6 a6 f2 3e 82 c3 31 3f 3f 91 be 3e 46 31 ee 3e
       0.47392863 0.69438946 0.3722019 0.46521968
000110 ac 62 a1 3e a6 6d 06 3f d1 02 13 3f d8 74 1b 3f
       0.31520593 0.5251106 0.5742617 0.60725164
000120 61 7a 32 3f 5e fa fc 3e f6 6d 15 3f 79 fd f9 3e
       0.69717985 0.49409765 0.5837091 0.48826197
000130 e7 7c 1a 3f a7 88 1c 3f 70 07 0e 3f 14 cc ac 3e
       0.60346836 0.61146015 0.554801 0.3374945
000140 46 de de 3e ff bf 00 3f 8c a8 73 3f 98 80 14 3f
       0.43528956 0.5029296 0.9517906 0.5800872
000150 08 8e eb 3e 47 16 07 3f 12 96 d7 3e a0 a1 fc 3e
       0.460068 0.5276837 0.42106682 0.4934206
000160 07 b2 5c 3f 45 93 17 3f ba 1e 2b 3f a2 68 f6 3e
       0.8620915 0.5920909 0.6684376 0.48126704
000170 bf 74 05 3f 92 a5 d1 3e 1a 29 cc 3e 40 99 16 3f
       0.52131265 0.40946633 0.39875108 0.5882759
000180 c3 49 c4 3e 41 6e 11 3f f9 85 e8 3e 3f 47 06 3f
       0.38337526 0.5680886 0.45414713 0.5245246
000190 21 f0 13 3f 8f fc ea 3e 2b d1 2f 3f 6b 1b 04 3f
       0.5778828 0.45895812 0.6867854 0.51604337
0001a0 62 a5 0e 3f b2 eb fa 3e c4 33 ef 3e 25 05 c5 3e
       0.55721104 0.49007946 0.46719182 0.38480487
0001b0 28 d7 1a 3f 63 f8 a3 3e d5 38 f4 3e 77 8c 11 3f
       0.6048455 0.32025442 0.4769961 0.5685496
0001c0 3d 96 15 3f be 7b 22 3f 4b 79 08 3f 3d 4c b5 3e
       0.5843237 0.63470066 0.5331008 0.35409728
0001d0 f5 25 1d 3f d5 10 05 3f 6b 18 0b 3f c9 6d 82 3f
       0.6138604 0.5197881 0.54334134 1.0189754
0001e0 0a 75 d9 3e 80 18 d5 3e 64 fc 41 3f 78 5c eb 3e
       0.42472106 0.41620255 0.7577574 0.45968986
0001f0 ae e7 12 3f 00 7a c9 3e b9 c2 0c 3f 3b d6 03 3f
       0.57384765 0.3935089 0.54984623 0.51498765
000200 f4 5e 1c 3f e9 3d de 3e 06 d2 d5 3e 1f 8c fe 3e
       0.61082387 0.4340661 0.41761798 0.4971628
000210 f1 38 d7 3e 97 b3 11 3f 17 eb c2 3e df 38 01 3f
       0.4203563 0.5691466 0.38069984 0.50477403
000220 84 79 c6 3e f5 72 14 3f f4 2a c5 3e 16 c2 e7 3e
       0.38764584 0.5798791 0.38509333 0.45265263
000230 5d ec d8 3e b6 3a f1 3e 1f f4 14 3f 74 5a e7 3e
       0.4236783 0.47115105 0.58185 0.45186198
000240 62 8b d3 3e 8d f9 b6 3e b6 6e 67 3f cd 33 22 3f
       0.41317278 0.35737267 0.90403306 0.6336029
000250 0b 6e 1a 3f 4f 2c 06 3f c0 bd 22 3f 1d 8f e2 3e
       0.6032416 0.5241136 0.63570786 0.44249812
000260 77 d1 4a 3f 1e 1c 1f 3f 6b 09 ee 3e 64 b5 3b 3f
       0.7922587 0.6215228 0.4649156 0.73323655
000270 d5 c0 fa 3e 6f 5c 0b 3f 32 e9 2a 3f b5 b9 13 3f
       0.48975244 0.5443792 0.6676208 0.5770524
000280 dc 35 f2 3e 91 1d e2 3e 5b 85 0f 3f 40 bd bb 3e
       0.47306716 0.44163182 0.5606286 0.36667824
000290 4b a8 26 3f f7 57 f7 3e b0 3b 10 3f 2f ef 1f 3f
       0.65100545 0.483093 0.56341076 0.6247434
0002a0 df 4f 53 3f 55 ab 16 3f 2a 2d 07 3f ae 67 a3 3e
       0.8254375 0.5885518 0.5280329 0.3191504
0002b0 6d 7d 00 3f bb 15 df 3e 2e 96 e2 3e 02 6b b0 3e
       0.50191385 0.43571267 0.44255203 0.3445664
0002c0 61 5b 1e 3f 23 78 c9 3e bc 5b 57 3f 42 03 00 3f
       0.61858183 0.3934947 0.8412435 0.5000497
0002d0 40 10 0f 3f ad 8d c4 3e c0 df ac 3e 48 90 a7 3e
       0.5588417 0.3838934 0.33764458 0.32727265
0002e0 ac 9c c3 3e 77 82 f0 3e 72 c4 d7 3e ef 85 0a 3f
       0.3820547 0.46974537 0.42142063 0.54110616
0002f0 f6 76 19 3f 86 d0 09 3f 04 f7 10 3f de ab 03 3f
       0.59947145 0.53833807 0.56626916 0.51434124
000300 27 77 09 3f 0e f3 36 3f 7d 2d 29 3f 4f 99 b7 3e
       0.5369744 0.7146462 0.66085035 0.35859153
000310 a3 a6 1b 3f 3b 8a e8 3e ae c4 1c 3f 87 35 ed 3e
       0.6080114 0.4541796 0.6123761 0.463299
000320 85 80 03 3f 35 ce f1 3e dc 51 16 3f 6e 96 f7 3e
       0.5136798 0.47227636 0.5871866 0.48356956
000330 c8 31 e0 3e e2 4c 1b 3f a6 1d 02 3f 08 b3 18 3f
       0.4378798 0.6066419 0.5082649 0.5964818
000340 d0 64 22 3f 21 06 f0 3e 77 76 f4 3e 32 b6 ee 3e
       0.6343508 0.46879676 0.47746632 0.4662338
000350 41 54 a4 3e 32 f4 da 3e 65 fb eb 3e 29 1b b9 3e
       0.3209553 0.4276443 0.46090236 0.36153534
000360 34 ac f7 3e a0 de e1 3e 88 01 1c 3f 43 0f 08 3f
       0.48373568 0.44115162 0.60939837 0.5314829
000370 8b e8 29 3f 48 16 13 3f e8 07 24 3f 08 f4 54 3f
       0.6637046 0.57455873 0.64074564 0.8318486
000380 69 5b 07 3f 74 32 4e 3f 13 9b 14 3f 77 99 04 3f
       0.52873856 0.80545735 0.58049124 0.5179667
000390 69 31 0c 3f d6 a9 04 3f e1 c0 fd 3e 7f ff 03 3f
       0.54762894 0.5182165 0.49561217 0.5156173
0003a0 02 2a 0a 3f b4 6b f9 3e aa 64 d7 3e a4 be d4 3e
       0.5397035 0.48714983 0.42068988 0.41551697
0003b0 e1 a4 12 3f 8b 31 1b 3f a7 c2 f5 3e 41 a6 f8 3e
       0.57282835 0.6062247 0.4800007 0.48564342
0003c0 4e 94 34 3f 28 94 3b 3f 7a 9b f4 3e 6b 55 1a 3f
       0.70538795 0.73272943 0.4777487 0.6028659
0003d0 50 8d 19 3f a0 7e 92 3e 88 8f 10 3f 12 e9 27 3f
       0.5998125 0.28612232 0.5646901 0.6559001
0003e0 fb bc 24 3f 28 5b 2b 3f bd 7a 04 3f 01 28 f6 3e
       0.6435086 0.6693597 0.51749784 0.48077396
0003f0 28 60 ea 3e 07 f5 0d 3f 22 72 02 3f ac c7 14 3f
       0.45776486 0.5545201 0.509554 0.58117175

fc2.weight f4 [128, 256]
000000 0f 2a f7 bc 24 c4 62 3b a6 c4 5d 3d 88 dd 9e 3d
       -0.030171422 0.0034601772 0.054142617 0.077570975
000010 cf ea 9b bd 7d 8f 7d 3c 62 b1 d0 bd 88 60 8b 3c
       -0.076131456 0.015476105 -0.10190083 0.017013803
000020 95 64 10 bd 21 8f 8b 3c 2a 54 8a 3d 9e 15 13 3d
       -0.035252172 0.017036023 0.06754334 0.035909288
000030 9a 4f f8 3b 62 7f 1f 3d a8 9b 8e bd 11 45 a3 3b
       0.0075778486 0.03893984 -0.06963283 0.0049825986
000040 ad b9 39 bd dd 73 89 bc de 02 85 bd 23 33 aa 3d
       -0.04534309 -0.01677888 -0.064946875 0.08310535
000050 97 39 1f bd 67 9d 62 3c 7d 2a a3 3b a4 fe c7 3d
       -0.03887328 0.013831473 0.00497943 0.09765366
000060 17 6e 85 bd 41 81 07 bd c2 f5 8b 3d 8a 62 9a bc
       -0.065151386 -0.03308225 0.06833984 -0.018845815
000070 a9 43 bf 3b 62 37 fd bc 8e b5 d6 3c 3d f2 97 3d
       0.005836923 -0.030910198 0.026209619 0.0741925
000080 70 69 1a bb 1f 79 4c bd c5 0f 91 3c 91 18 fd bc
       -0.002356138 -0.049920198 0.017707715 -0.030895503
000090 26 37 a6 bd 81 4c 4e bd 36 fe 9b 3c b7 f2 0f bd
       -0.081159875 -0.05036593 0.019042116 -0.03514358
0000a0 07 a8 10 3e 50 76 5a 3d 2c 71 b8 3d b0 2a 83 bc
       0.14126597 0.053335488 0.09005961 -0.016011566
0000b0 c0 6b 27 3d 1e c3 9f 3d e0 4f 83 bb 66 28 fc 3c
       0.040874243 0.078008875 -0.0040073246 0.030780982
0000c0 2a 37 ef bd e4 08 f6 3d 5f b8 1d bd f6 ed 54 bd
       -0.116804436 0.120134145 -0.038505908 -0.05198475
0000d0 b0 d6 45 bd 5f 1c 06 bc 65 43 b8 bc 2b 31 77 bc
       -0.048300445 -0.008185475 -0.022493074 -0.015087406
0000e0 d4 32 97 3c ee 85 2f 3e dc c1 9b 3d 20 0c 0d bd
       0.018456854 0.17140934 0.07605335 -0.03443539
0000f0 ef 25 a3 3d 1c ce 7a bc 72 3e 2e 3d 43 aa 57 bd
       0.0796622 -0.015307929 0.04254002 -0.05265261
000100 83 57 ea bd 75 dc 65 3d 7c c8 02 3d 34 39 20 3e
       -0.11442473 0.056118447 0.031929478 0.15646821
000110 7d 52 6f bd 62 5a 84 3d f8 c3 8e bd 6a df 5c bc
       -0.058428276 0.06462552 -0.06970972 -0.013481
000120 84 10 1d 3c 19 d6 a2 bd 8e 3b 0f bd dd 02 cb b9
       0.009586457 -0.07950992 -0.034968905 -0.0003872131
000130 b5 4d 24 bb 8e 3f 19 bc d1 b3 1f bd 42 05 90 3d
       -0.002507073 -0.0093535315 -0.038989846 0.07032253
000140 ab e2 6f bd 29 9b 58 bd 07 2e 8e 3d 1c f1 33 bd
       -0.058565777 -0.052882347 0.06942373 -0.04393111
000150 5b 43 f3 3c 34 5e 67 3d 98 51 c3 ba a8 cd a0 bd
       0.029695204 0.056486323 -0.0014901636 -0.07851726
000160 63 e3 f9 bd 8f 92 8a 3c 95 c3 bd bc 7b 72 25 bd
       -0.12201574 0.016915588 -0.02316455 -0.04039238
000170 c9 ef 85 3d 2d c3 2e 3d 8e 21 8c 3d d0 e4 b2 bc
       0.06539876 0.042666603 0.068423375 -0.021837622
000180 3f 3f 46 bc 03 57 a4 3d cb 42 fb bb d9 3c c6 bd
       -0.01210004 0.08024409 -0.0076678745 -0.096795745
000190 c4 10 a5 3b 50 07 ba bc 45 7b 0b bd 5e a9 17 bd
       0.005037399 -0.022708565 -0.034053106 -0.037026756
0001a0 da f3 64 bd 5b 62 01 3d a0 50 72 bd 88 0e af bc
       -0.055896617 0.03158794 -0.05915892 -0.021369234
0001b0 6b 3c 9b bc 93 1d 2b bb 6e 7f 23 be 0c 95 af 3d
       -0.018949708 -0.0026110157 -0.1596658 0.0857335
0001c0 75 88 47 bb 52 a0 14 3d 54 10 9b bd 22 c7 c1 3d
       -0.0030446325 0.036285706 -0.07571474 0.0946181
0001d0 93 6c ef 3c c8 e2 9c bc 05 65 06 3d 4c ea b2 3d
       0.029226577 -0.019151106 0.032811183 0.08736095
0001e0 79 1c ec 3d 95 2d 58 bd 37 ef e5 3c 42 de 1c be
       0.11528868 -0.052777845 0.028068168 -0.1531916
0001f0 fd 2c 3c 3d 43 34 00 3e c7 ae 52 bd 38 60 22 3e
       0.04594134 0.12519936 -0.051436212 0.15857017
000200 5b ca 81 3c 5b 05 84 3d 40 f0 50 bd 01 93 95 3b
       0.01584356 0.06446334 -0.05101037 0.0045646434
000210 6c 7b 5e 3d f3 66 bd bc 15 40 d2 bb 72 9c 21 3d
       0.054316923 -0.02312038 -0.0064163306 0.03945584
000220 ec f7 36 bc ce 3f a3 bc 7c b5 04 bd a7 cf 7a bd
       -0.011167508 -0.019927885 -0.03239964 -0.06123319
000230 2c ea 8d 3c 45 4b 29 3a 9c a7 0d bc 7f d8 5e bc
       0.017323576 0.00064580544 -0.008645918 -0.013601421
000240 7c a6 88 3b 84 1e dc bd b1 6f af 39 75 f0 fd 3d
       0.004170237 -0.10748008 0.00033461818 0.12399379
000250 39 6a 30 bb 53 c8 ba 3d 00 38 af bc 2c b6 0c 3e
       -0.0026918782 0.0912024 -0.021389008 0.13741368
000260 c2 c7 25 bd e8 33 40 bd e6 d2 03 bc f2 5a 18 bc
       -0.040473707 -0.0469245 -0.008045888 -0.009299027
000270 cd 50 d8 39 d0 da e5 3c e5 1f 54 bc 0c a6 04 bd
       0.00041258932 0.02805844 -0.012947057 -0.032384917
000280 44 77 2c bd 9e e2 8e 3d 5d 3c 51 bc 15 f6 6e 3c
       -0.042105928 0.069768175 -0.012770739 0.014585038
000290 03 23 97 3d 22 79 c1 bd 48 f2 44 3c dc c9 27 3c
       0.07379725 -0.094469324 0.012020655 0.010240998
0002a0 d2 b0 76 bd 05 23 75 bc 9b 2a 57 3d ac ec 77 bd
       -0.060227223 -0.014961963 0.052530866 -0.060528442
0002b0 25 be 10 3d 27 2a 19 bd 4f 64 0f bb 69 11 01 3d
       0.035337586 -0.037393715 -0.0021879857 0.031510744
0002c0 52 a5 ad bc fa 72 eb bb 36 76 30 bc 9e dc 90 bc
       -0.021196995 -0.007185337 -0.010770371 -0.017683323
0002d0 ff 41 ac 3d e2 82 9b bc ac da c3 3d 1d d0 12 bd
       0.08411025 -0.018983308 0.09563193 -0.035843004
0002e0 6a 7b a5 3d 64 b0 87 3c 8e e1 e0 3c 87 ad b5 bd
       0.0808018 0.016563602 0.027451303 -0.08870988
0002f0 6b 1d f9 bc 0c b4 46 3d 79 13 9d bd 80 a3 1b be
       -0.030409535 0.04851155 -0.0766973 -0.15199089
000300 2c 2f ca bd 05 94 16 bd 0a 47 0b 3c 45 57 f8 3d
       -0.098722786 -0.036762256 0.008500824 0.1212602
000310 21 4f 56 bd 7c 05 ff 3c 6e 25 fe 3d f8 d5 7f 3d
       -0.052321557 0.031130545 0.12409483 0.062459916
000320 69 4c 9f bd 93 d0 a2 bc 49 e7 a6 bd 50 96 89 bd
       -0.07778246 -0.019874847 -0.08149583 -0.06718123
000330 d2 3f 77 bc 65 c8 3e 3d 2c 5d b2 3d 52 7d f9 bb
       -0.0150909 0.04657783 0.087091774 -0.0076138163
000340 c4 6e a5 3d 48 ec bb bd bc cb 8b 3d 63 aa 80 bd
       0.080777675 -0.091759264 0.068259686 -0.06282499
000350 f1 d9 37 3d e6 e6 5f bd 51 1b a0 3c 8b 74 c0 bc
       0.04488558 -0.05466356 0.019544275 -0.023493072
000360 d7 01 75 ba 5c cd b8 bb cc 3c 92 3d e1 25 d4 3c
       -0.00093462825 -0.005639715 0.07140502 0.025896968
000370 1f 15 50 bd f6 ee 8c bd aa f3 1f 3d f7 ee 33 bc
       -0.050801393 -0.06881516 0.039050736 -0.010982267
000380 2f 63 f6 bc ea 01 b9 bc 2b 94 d5 bd d1 1b cc 3d
       -0.030076591 -0.02258392 -0.104286514 0.09966243
000390 82 06 ab bb 0f d7 a1 bc 01 b4 f4 3d b6 54 89 bc
       -0.0052192817 -0.019755868 0.119483955 -0.016764026
0003a0 27 ed 7b bb f4 b7 24 3c 63 2c 17 3d fe c3 07 3d
       -0.0038440914 0.0100536235 0.036907565 0.033145897
0003b0 56 5e 4a bd 9e 52 47 bd 2d b5 e8 bc 38 8d 7f bd
       -0.049406372 -0.048662774 -0.028406704 -0.062390536
0003c0 84 14 95 3c 56 9a d2 3c b9 52 a9 bd e4 c9 28 bd
       0.01819826 0.025708359 -0.08267731 -0.041208163
0003d0 37 48 94 bc 2c 8f ac bc 6f 88 9c 3b e8 37 c7 3c
       -0.018100841 -0.021064363 0.0047770063 0.02431865
0003e0 ba 74 cd 3d ff 78 f1 bc 19 99 e9 3c 70 da c5 3a
       0.100320294 -0.02947664 0.028515385 0.0015095007
0003f0 cb 3b 2c bd a5 ed ad bd 77 33 c6 3b 9a 54 64 3d
       -0.04204921 -0.08492593 0.0060486156 0.055744745
