CocktailRecommendationService/app/service/models/recommend/model/multi_label_model.pt (torch, 374048 bytes, 4 tensors)

fc1.weight f4 [128, 297]
000000 4d 57 f2 bc 22 fe 91 bc e5 1f a3 bd 63 47 7a 3b
       -0.029582644 -0.017821375 -0.07965068 0.0038189522
000010 13 82 02 bd 19 1e 77 3c b8 ab ab bd f5 e8 8e bd
       -0.03186233 0.015082859 -0.08382362 -0.06978027
000020 7d de 09 3e 91 72 5d bd 68 49 15 3c c8 88 77 3e
       0.13463779 -0.054064337 0.00911174 0.24173272
000030 e1 8d 02 bd 6a 41 b0 3d 39 45 d5 3c cc 8c 12 bc
       -0.031873588 0.08606227 0.026033984 -0.008944701
000040 9d f1 f9 bb dd 9a 8a 3c 79 10 81 3c a7 ca 67 bd
       -0.0076276795 0.016919548 0.015754925 -0.05658975
000050 a2 0d 6a 3c 68 0e 0b 3c 2f 83 42 bc 08 cb da 3c
       0.014285477 0.008487321 -0.011872097 0.026708141
000060 54 38 52 3d f9 15 18 bd 73 70 a3 bc a5 af ef 3d
       0.05132325 -0.03713033 -0.01995108 0.117034234
000070 23 7d c4 3d 23 2d 89 bc 12 be fa 3c d1 8b 10 bd
       0.095941804 -0.016745156 0.03060821 -0.03528959
000080 fa ab 0d 3e a3 c8 0d 3e 85 a3 d3 3c e3 50 91 bc
       0.13835135 0.13846068 0.025834808 -0.017738765
000090 e7 ba 93 3d eb 75 cb 3d c5 60 1b 3d b6 ab 86 3d
       0.07213383 0.099346004 0.037934083 0.0657572
0000a0 01 a8 18 bc 19 ef c8 bc cd 2f 4e 3e f7 bc 85 bb
       -0.009317399 -0.024528073 0.20135422 -0.0040813643
0000b0 51 5a 80 3d 3d 95 51 bd 16 3b c0 ba 88 44 52 bd
       0.062672265 -0.051167715 -0.0014666046 -0.051334888
0000c0 9a a5 1d 3e e6 7f c7 3d 68 95 25 3c a9 b7 bf bb
       0.15395203 0.097411916 0.010106422 -0.0058507514
0000d0 43 08 bd bd ea 60 88 3d c0 b6 03 3e cd 0b 25 3e
       -0.092300914 0.0665911 0.12862682 0.16117783
0000e0 c5 25 b1 bd f8 f0 9e 3d a0 d3 ba 3d 59 c5 f7 bd
       -0.08649782 0.07760805 0.091223955 -0.12098188
0000f0 bd 8b c5 bc a1 61 8e 3a 9b 50 af 3d d1 16 e8 3c
       -0.024114484 0.0010862836 0.08560296 0.028331192
000100 4d c1 38 3d b7 9d 81 3d a9 05 f5 3d 96 b8 6f 3d
       0.04510622 0.0632891 0.1196397 0.058525644
000110 b1 90 80 3d a3 3a d4 3d c7 fd 7f bc c9 4b 3b 3d
       0.06277598 0.103627466 -0.01562447 0.04572657
000120 2d fd ac bd 08 a2 39 bd 40 f2 a5 3d 07 60 de bc
       -0.08446727 -0.04532054 0.08102846 -0.027145399
000130 fc bd 0f 3d fd 56 e3 bc 7b 7e 59 3d b1 0b c6 3c
       0.035093293 -0.02775144 0.053099137 0.024175497
000140 03 32 ac 3c f8 35 63 3d 7f f7 16 3d 2b af 90 3c
       0.021019941 0.05547139 0.036857124 0.017661652
000150 5b 64 a3 3d 10 02 01 3e bf 0c bb 3d ad 3d ab 3d
       0.07978126 0.12598443 0.091332905 0.08361373
000160 2f 1d 18 3e 35 0b 47 3d 62 77 91 3d 99 72 bd 3d
       0.14854883 0.048594672 0.071028486 0.092503734
000170 c7 1b 80 bc 65 09 3d 3d c5 8a 9f 3c 25 4d 44 3d
       -0.015638245 0.046151537 0.01947535 0.047925133
000180 d6 31 2d 3e 5d 9e 22 bc a6 17 a1 bd d0 7b 7a bc
       0.16913542 -0.009925452 -0.07865839 -0.015288308
000190 32 d3 00 bd 26 d2 42 bd 3b 48 c7 3c 2c 51 e5 bd
       -0.03145141 -0.047563694 0.024326434 -0.11197123
0001a0 91 1d b5 3d 6f 88 da 3d a7 e9 60 3e 0e a7 e6 3d
       0.0884353 0.10670554 0.21964131 0.11262332
0001b0 b9 98 f6 bd 75 b6 5a bd 04 7b 5a 3d 3b a0 cb 3d
       -0.12040848 -0.05339666 0.053339973 0.09942671
0001c0 e8 da b7 3d 4c 38 2f bd 10 b1 4d bd d1 d2 d3 3d
       0.089773 -0.0427783 -0.050217688 0.103429444
0001d0 bb af 0f be 07 31 99 3d ed 61 db bd 42 ae 7a 3c
       -0.1403188 0.07480054 -0.10712037 0.015300335
0001e0 0e 37 a8 3d aa e3 e6 bb 18 f4 61 3d c0 46 9c 3d
       0.08213626 -0.0070461826 0.055164427 0.07630682
0001f0 5f 71 ae 3d f3 45 60 bc b6 c2 cf 3d 39 83 90 3d
       0.085177176 -0.013688552 0.1014456 0.07056279
000200 cf 64 43 bd 5e ad 20 3d 44 0d 76 3d 08 50 fe 3d
       -0.04770356 0.039227836 0.060071245 0.124176085
000210 64 23 02 3e 6e 4f ab 3d bc 95 c3 bd 53 c8 81 3d
       0.12708813 0.083647594 -0.09550044 0.06337037
000220 eb bd cd bc de 5e 04 bc f3 1d 08 3e 3c bf 02 3e
       -0.025114974 -0.008079259 0.13292675 0.12768263
000230 3b 53 bd 3c 8f d9 d3 3d 37 c1 33 3d a5 59 01 3e
       0.023110976 0.103442304 0.043885436 0.12631853
000240 87 0a cb bc bd 79 8b 3d 5f e9 89 3d be 8d 56 bd
       -0.024785293 0.06810329 0.06733965 -0.05238127
000250 c1 fd ac bd 6b 09 f8 3d ee 9f aa 3d ef a9 87 bd
       -0.08446837 0.12111171 0.083312854 -0.06624209
000260 0d 5f 8d bc 44 21 26 3e cf c0 ed 3d 1e 57 06 3d
       -0.017257238 0.16223627 0.11609041 0.032797925
000270 81 24 b2 3d df 92 a6 3d 57 94 a1 3d 72 35 c9 3c
       0.08698369 0.08133482 0.07889622 0.024561618
000280 75 cf c8 3d ed 5c cd 3d d5 d2 ec 3c d5 ed 17 3d
       0.09805194 0.1002749 0.028909126 0.03709205
000290 55 d2 0b 3e d9 b7 10 be ae 8d 23 3e 72 3c 4e 3d
       0.13654454 -0.14132632 0.15972015 0.050350614
0002a0 ca b0 0a 3e 98 52 6d 3c 87 ab 9b 3d 7a 6c 50 3d
       0.13544002 0.014485024 0.076010756 0.0508847
0002b0 7f f6 92 3d 41 73 39 3d 03 ce 1f 3d 44 77 53 bd
       0.07175922 0.04527593 0.039014827 -0.051627412
0002c0 9d 02 35 3d 7e 86 3a bc e0 af c8 bc ce bb d9 bc
       0.044191945 -0.0113846045 -0.024497926 -0.02657881
0002d0 94 8e 27 3e 35 ef f2 bd f0 d7 ce 3d 18 b3 29 3e
       0.16362983 -0.11862031 0.100997806 0.16572225
0002e0 06 5b 91 3d 6d ea 0f 3c 90 eb cc 3c c6 f6 1f 3d
       0.070974395 0.008783919 0.025014669 0.0390537
0002f0 b0 0e 03 be cf 12 c7 bc dc ba 37 bd af c6 4e bc
       -0.12798572 -0.02430096 -0.044855937 -0.012620612
000300 11 1f 11 3e a7 4c 72 3d 20 bb c9 bd 17 9d ba bd
       0.14172007 0.059155133 -0.098501444 -0.09111994
000310 cc 2b 99 3d a7 98 b1 bb 0d 4b 86 bd f8 b9 e9 bd
       0.07479057 -0.005419809 -0.065572836 -0.11412424
000320 ce 76 24 3c 29 e1 05 3e 34 9e 1c 3d c0 ed fd 3d
       0.010038091 0.13074173 0.03823681 0.12398863
000330 87 16 c1 3d eb 7a d3 3d db 28 03 3d 71 f8 d6 3c
       0.09428125 0.10326179 0.032021385 0.026241513
000340 bb ca ad bd 70 29 b3 ba 15 0e 80 bd d3 08 c5 3c
       -0.084859334 -0.0013668966 -0.06252686 0.02405206
000350 24 a1 98 3c 3b 21 e7 b9 4a ad 2e bd 2c 33 b5 3c
       0.018631525 -0.00044084512 -0.04264573 0.022119127
000360 53 4f 98 bd 79 f6 c6 3c 89 42 c7 3d a2 47 81 3d
       -0.07437005 0.02428745 0.097294874 0.06312491
000370 55 77 a1 3d 72 cc 8c bb 28 f0 eb bd 0d 1c 9b 3d
       0.07884089 -0.0042968327 -0.115204155 0.0757371
000380 34 89 93 3d 46 90 3a 3d 25 ab 52 3e 3d 03 94 3d
       0.07203904 0.045547746 0.20573099 0.0722718
000390 3b 4d 19 3e 4c 90 1a bc 2e 12 85 3d b8 d2 cb 3b
       0.14970867 -0.009433817 0.06497608 0.006220188
0003a0 d9 8c 90 bd d7 61 83 bb 3d b6 a0 3d c5 28 9a bc
       -0.070581146 -0.004009466 0.07847259 -0.018818269
0003b0 43 38 c2 3c 3b 8b 94 bc af 3d f7 bd d7 2e ab bd
       0.023708468 -0.018132797 -0.12072312 -0.08358543
0003c0 e2 52 2e 3e ae 09 59 3c 42 19 33 be 3b 5b 3f 3e
       0.17023805 0.013246937 -0.17490104 0.18687145
0003d0 03 7a 88 3d d3 9c 39 3e e0 b7 3b bd 7d dd 8e bc
       0.06663897 0.1812623 -0.045829654 -0.017439598
0003e0 6d f4 80 3d 40 96 b5 3c 10 17 09 3d 7b f9 86 bc
       0.062966205 0.022166371 0.03346926 -0.016476383
0003f0 24 f8 ef 3c d6 12 21 3d 7d 4d 82 bd a4 61 a5 3d
       0.029293127 0.039324604 -0.06362436 0.08075264

fc1.bias f4 [128]
000000 a9 a3 36 3e e9 01 40 3e 43 7a 2f 3e 7b 66 3e 3e
       0.17835869 0.18750729 0.17136483 0.1859378
000010 74 79 32 3e 7b 70 4a 3e 8f 0d 27 3e f0 92 30 3e
       0.17429143 0.1976947 0.16313766 0.17243552
000020 ba 24 30 3e 23 4a 5e 3e 8f 0c 31 3e 01 f0 53 3e
       0.1720151 0.21707968 0.17289947 0.20697023
000030 5b 6b 23 3e be 86 36 3e fe b8 3c 3e 97 8b 08 3e
       0.15958922 0.17824838 0.18429944 0.133345
000040 b7 b5 64 3e e5 0c 28 3e 5a a7 52 3e 48 37 45 3e
       0.22334944 0.16411169 0.20571652 0.1925937
000050 da 98 18 3e de 18 3c 3e 33 b5 1e 3e 1f 50 2e 3e
       0.14902058 0.18368861 0.1549881 0.17022751
000060 07 f7 17 3e e5 d1 2f 3e 68 17 5b 3e 9b 89 32 3e
       0.14840327 0.17169912 0.21395648 0.17435305
000070 9d 95 62 3e 55 43 45 3e 7c d3 4d 3e d6 9b 36 3e
       0.22127385 0.19263966 0.20100206 0.17832884
000080 b7 2e 3d 3e f5 43 6d 3e 3f d6 5c 3e 8a fe 37 3e
       0.18474852 0.23170455 0.21566103 0.17968193
000090 d8 9c 4e 3e 03 54 37 3e 6b 2a 0b 3e 5f eb 5c 3e
       0.20177019 0.17903142 0.135904 0.21574162
0000a0 ea 2b 28 3e d1 3d 53 3e 04 2b 2e 3e 75 a3 3f 3e
       0.16423002 0.2062905 0.17008597 0.18714698
0000b0 5b 2e 5b 3e 36 bd 21 3e fe 18 62 3e f4 51 4c 3e
       0.21404402 0.15794834 0.22079846 0.19953138
0000c0 52 5a 54 3e 86 c9 28 3e 04 23 4a 3e f7 3d 54 3e
       0.2073758 0.16483125 0.1973992 0.20726763
0000d0 1d 8a 4b 3e 8f 10 24 3e 14 6b 28 3e b5 56 39 3e
       0.19876905 0.16021942 0.16447097 0.18099482
0000e0 d1 3b 59 3e 1b 4f 4a 3e 58 7b 40 3e 23 9b 50 3e
       0.21214224 0.19756739 0.18797052 0.2037168
0000f0 08 41 92 3e e0 05 48 3e 5f 4b 01 3e 81 54 26 3e
       0.2856524 0.19533491 0.12626408 0.16243173
000100 3b e4 59 3e c1 3b 3d 3e 4a 7d 32 3e 44 34 3e 3e
       0.2127847 0.18479826 0.17430606 0.18574625
000110 f0 a6 2a 3e 2c 07 72 3e 6f fe 12 3e 68 44 41 3e
       0.16665244 0.23635548 0.14354871 0.18873751
000120 31 1e 3b 3e c9 a5 18 3e 68 6b 38 3e a0 b2 38 3e
       0.18273236 0.14906992 0.18009722 0.1803689
000130 0c a1 32 3e ea 38 47 3e e1 20 2c 3e 51 1e 4c 3e
       0.17444247 0.19455305 0.16809417 0.1993344
000140 c6 6d 77 3e e8 bd 1f 3e 86 5f 11 3e 28 1e 28 3e
       0.24162969 0.15599787 0.14196596 0.16417754
000150 f5 ff 1f 3e 9a 6f 35 3e 8d 0f 2d 3e 76 72 26 3e
       0.15624984 0.17718354 0.16900463 0.16254601
000160 ef 11 5c 3e 3d 8a 83 3e aa 98 51 3e a7 63 3c 3e
       0.21491216 0.25691405 0.20468393 0.1839739
000170 61 3b 33 3e 65 06 25 3e 38 df 2c 3e 21 14 2a 3e
       0.1750312 0.1611572 0.16882026 0.16609241
000180 f8 8a 56 3e 1d b4 50 3e 53 a2 55 3e 35 4b 32 3e
       0.2095145 0.20381208 0.20862703 0.17411502
000190 f9 04 37 3e f1 fa 83 3e 3c 32 34 3e 24 5e 31 3e
       0.1787299 0.2577739 0.17597288 0.17321068
0001a0 3f 8e 45 3e 0a 66 71 3e 88 fc 2b 3e f7 49 c3 3e
       0.19292544 0.23574081 0.16795552 0.38142368
0001b0 27 16 2f 3e 1b 39 57 3e f0 8d 5e 3e 41 ff 42 3e
       0.17098294 0.21017878 0.21733832 0.19042684
0001c0 98 34 63 3e 5d 29 40 3e ea 0f 77 3e fd db 63 3e
       0.22188032 0.18765779 0.24127164 0.22251888
0001d0 e7 a2 53 3e b4 61 b4 3e c7 80 4c 3e 39 55 4c 3e
       0.20667611 0.35230792 0.19971 0.19954385
0001e0 77 2a 41 3e 78 28 49 3e a2 d3 2c 3e 6b ad 5a 3e
       0.18863855 0.19644344 0.16877607 0.21355216
0001f0 43 a2 2d 3e ec 1e 2a 3e 65 a5 36 3e 05 46 4c 3e
       0.16956429 0.16613358 0.1783653 0.19948585

fc2.weight f4 [425, 128]
000000 61 f8 2c bd 81 44 70 bd 4d dc 22 be 55 3e 45 be
       -0.04222906 -0.05865908 -0.1590435 -0.19262059
000010 0b f0 3e be 08 42 ed 3c e9 ed 90 bd e2 29 2a be
       -0.18646257 0.02896215 -0.07076628 -0.1661754
000020 0c a5 9c be c8 65 22 be dc 52 d2 bd 80 8d ff bd
       -0.3059467 -0.15859139 -0.102697104 -0.12478161
000030 fd b0 6b bd f1 e4 18 3d bb ee 18 be f6 4a 49 be
       -0.057541836 0.03732771 -0.14934818 -0.19657502
000040 ea 7c bd bd c3 d0 85 be 90 25 0b be 59 39 26 3d
       -0.09252341 -0.26135835 -0.13588548 0.040582035
000050 2e e9 0b bc c4 cb 20 bd b5 08 87 3d 61 a5 65 be
       -0.008539481 -0.039256826 0.065934576 -0.22426368
000060 e9 37 5b be 93 67 fb 3c 53 d6 92 be f4 0c 14 be
       -0.21408047 0.030689036 -0.2867914 -0.14458066
000070 d0 8e 2e be c3 67 a3 be a4 0c 32 be fc e8 3b be
       -0.17046666 -0.319151 -0.17387635 -0.18350595
000080 9b f4 84 bc f2 1d 35 bf 99 cd 81 be e7 66 88 3d
       -0.016229918 -0.7074882 -0.2535217 0.06660252
000090 8b 6e 44 be c7 ec ed bd 55 ed 12 be 8d a0 fe bd
       -0.19182794 -0.11617427 -0.14348347 -0.124329664
0000a0 7c 55 c9 be a2 15 4a be ce eb ab bd ef 7e 97 be
       -0.39323032 -0.19734815 -0.083945855 -0.2958903
0000b0 56 4a a6 bd 6d f0 f6 bd d8 51 a6 be 96 76 56 bd
       -0.08119647 -0.12057576 -0.32484317 -0.052359186
0000c0 10 5d 2c bd 4a c5 87 bd c6 74 33 3d 9a 17 fe bd
       -0.04208094 -0.06629427 0.043812536 -0.124068454
0000d0 c7 b4 2e be 6c 01 64 be 9c da 76 bd 20 c0 20 be
       -0.17061149 -0.22266167 -0.060267076 -0.1569829
0000e0 ec 98 a7 bd dd 7c a8 bd f7 d3 10 be 1d de 64 be
       -0.081834644 -0.08226941 -0.14143358 -0.22350354
0000f0 6a 7c ba bd 7a 8f 88 bc 3b b9 0f be 64 9f e8 bd
       -0.09105761 -0.016669977 -0.14035504 -0.11358526
000100 96 3b 04 be 20 93 49 be fb 48 dc 3b d6 5c bd bd
       -0.12913355 -0.1968503 0.006722567 -0.09246223
000110 e2 aa 98 bc 0c 72 c4 be b4 3c 3b be 81 a2 54 be
       -0.01863617 -0.3836826 -0.18284875 -0.20765115
000120 bf 25 c3 bd 1a 2c a5 bd 82 41 bf bd 1b 66 17 be
       -0.09528684 -0.08065052 -0.093386665 -0.14785044
000130 f8 8e 8e bd fe e9 93 bc b2 d8 2f bd 54 3f 48 be
       -0.06960863 -0.018055912 -0.042931266 -0.19555408
000140 c8 de 3c be b4 f2 7d be 07 ec 1d be 9b 1c 27 be
       -0.1844436 -0.24799615 -0.15422069 -0.16319506
000150 d1 21 5a be ef d4 41 be f4 0f e2 3b 70 cb a5 be
       -0.21301962 -0.18928884 0.0068988744 -0.32381773
000160 81 fd a7 bd 9c df a2 be 2f 2b 6d be 0b 11 6d be
       -0.08202649 -0.31811225 -0.23161004 -0.23151033
000170 8f 15 8b bd e1 52 9a bd 57 54 56 bd 3c 8c 06 3c
       -0.06791221 -0.07535339 -0.052326526 0.008212145
000180 35 f0 85 bd ee a8 ee bd 5a 65 23 be f1 90 2b be
       -0.065399565 -0.116533145 -0.15956631 -0.1675451
000190 16 46 67 bc ae a3 6d be 8b 3c 5e be 25 3c 7e be
       -0.014115831 -0.2320697 -0.21702783 -0.24827631
0001a0 20 95 8a be c0 23 86 bd 96 b1 90 bc ee 2c a2 be
       -0.27066898 -0.065497875 -0.017662805 -0.31674904
0001b0 1b ba e7 3c d8 bc a0 be df d2 b1 be 65 e3 03 be
       0.028286984 -0.31394076 -0.34731194 -0.12879713
0001c0 41 f4 d7 be 20 33 ae bd 33 7e 89 be 05 08 47 bc
       -0.42178538 -0.08505845 -0.26854095 -0.012147908
0001d0 37 09 ec bd 1f 65 03 bc de 5f 5b be 69 7b 74 be
       -0.11525195 -0.008019715 -0.21423289 -0.23875202
0001e0 7e 37 35 bc b1 d8 e0 bd a0 34 38 3d 3d c1 3a be
       -0.011060594 -0.109788306 0.044972062 -0.18237777
0001f0 41 ba 3c bd fa 4e 1c bd 0f d2 58 bd c6 d9 e8 be
       -0.046076063 -0.038161255 -0.052934702 -0.45478648
000200 de 3f 38 3c cc 43 95 be aa cb c2 bd 17 6f a9 bd
       0.011245696 -0.29153287 -0.09511502 -0.08273142
000210 26 c3 fd bd f3 51 6e be fa 98 26 be 9e 70 64 be
       -0.12390737 -0.23273449 -0.16269293 -0.22308585
000220 93 b1 11 be 2f db 0c be c0 19 ca bd 8f 7f 96 be
       -0.14227895 -0.13755487 -0.09868193 -0.29394194
000230 cf 23 30 be 06 da 3a be 8b bf 39 bd 67 ef 47 be
       -0.1720116 -0.18247232 -0.045348685 -0.19524918
000240 02 ea d1 bc 35 78 0d bd 26 c7 0e 3d 21 d5 ba bd
       -0.025624279 -0.034538466 0.03485789 -0.09122682
000250 df 2f 22 be 08 8e b5 be 63 0a 28 be 32 51 fa bd
       -0.15838574 -0.35459924 -0.16410212 -0.12222518
000260 60 64 e1 bd c7 78 40 bd 7f d4 33 be 93 e0 2c be
       -0.11005473 -0.046990182 -0.1756153 -0.16882543
000270 bc d5 e7 bd c0 b1 b4 bd 38 17 0e be fc d9 7a be
       -0.113200635 -0.088229656 -0.13876045 -0.24497217
000280 4c 46 41 be e2 65 0e 3c cc 87 e3 3d 72 76 e8 bd
       -0.18874472 0.008691283 0.111098856 -0.11350717
000290 1c 39 26 be e6 67 ca bd db a9 e2 be 90 f4 9e be
       -0.16232723 -0.09883098 -0.44270214 -0.3104596
0002a0 a7 b0 77 be b8 f8 1a be b5 76 01 bd 94 cb 2b be
       -0.24188481 -0.15133941 -0.03160735 -0.16776878
0002b0 d6 58 c1 bd 50 c3 18 be c2 e2 03 be 9f bf b6 bd
       -0.09440772 -0.14918256 -0.1287947 -0.089232676
0002c0 58 d5 10 be 54 c0 54 3c 8f eb bd bd 23 b2 f5 3d
       -0.14143884 0.012985308 -0.09273445 0.119968675
0002d0 66 a1 fd bd d0 2c 7c be a4 3b 12 be f4 4d 3a be
       -0.123843 -0.2462647 -0.14280564 -0.181938
0002e0 35 eb 40 bd 92 4a 1e be 25 33 72 be b7 69 03 3d
       -0.04709931 -0.15458134 -0.23652323 0.03208324
0002f0 82 80 5e bd ea 7b 1d be 8d 21 a2 bd 42 da 50 be
       -0.054321773 -0.153793 -0.079165556 -0.20395759
000300 1c 79 89 bd 5b 92 21 be 83 8b cf bd ac 3b 5b be
       -0.06712553 -0.15778486 -0.101340316 -0.21409482
000310 7d 2d 8e be 2d 8e d1 bc 36 a5 bb bd 3c a6 56 be
       -0.2776908 -0.02558049 -0.09162371 -0.20961851
000320 02 5f 2f bd 30 fd 88 be 27 aa 5c be 94 b1 98 be
       -0.042815216 -0.26755667 -0.21549283 -0.2982298
000330 ab fd 78 be 49 46 96 be b4 70 7c bd 74 51 3a be
       -0.24315517 -0.29350498 -0.06163092 -0.18195134
000340 c9 49 35 be 88 7e ab be 18 0c bb be 2f e3 5a be
       -0.17703928 -0.33494973 -0.36532664 -0.21375726
000350 e6 41 42 be 8d 60 6e be 81 1b 49 be 4b f2 6c bd
       -0.18970451 -0.23279019 -0.19639398 -0.057848256
000360 20 cc 5f be a2 34 9d be e8 ce be bd 0f a8 56 bd
       -0.21855211 -0.30704218 -0.09316808 -0.052406367
000370 3e 14 0a be 46 2d d1 bd 49 ef 81 be 16 ee 3a be
       -0.13484284 -0.10213713 -0.25377873 -0.18254885
000380 3e e9 20 bc 42 1b 55 bd 20 04 e3 3b df b1 72 be
       -0.009821234 -0.05202795 0.006927982 -0.23700665
000390 30 e8 ab be 11 7e 4b be 2b 68 6c bd af 12 0d be
       -0.33575583 -0.1987231 -0.05771653 -0.13776658
0003a0 b1 01 e5 bd 21 2c 8d be 64 53 e8 bc ff df 7b bd
       -0.11181963 -0.2757273 -0.028360076 -0.061492916
0003b0 cd 7d a0 be 2b 06 76 bd f6 6f de bd 90 81 26 be
       -0.31345978 -0.060064476 -0.108611986 -0.16260362
0003c0 83 bf 11 bd cd df 3d be aa c7 a8 be 08 bb 4b 3b
       -0.03558303 -0.18542404 -0.32964832 0.003108682
0003d0 1c d7 d2 bd cd 9b 71 bd 44 23 ee bc 4e 43 b5 bc
       -0.10294935 -0.058986474 -0.02906955 -0.02212682
0003e0 20 7d 2a be b1 c5 a1 be 53 04 14 be 8a 1a 5c be
       -0.16649294 -0.3159614 -0.14454775 -0.21494499
0003f0 47 a4 d4 bd 55 a4 90 be 5f 71 f2 bc 0d 5e 5c 3d
       -0.10382896 -0.28250375 -0.029595075 0.05380063

fc2.bias f4 [425]
000000 1e bc 86 bc 3a 5a 79 bc 78 c2 de bd 0a 64 5d bc
       -0.016447123 -0.015219266 -0.10876936 -0.013512621
000010 db aa 03 bd fe 8d b7 bd 89 97 bc bd d9 49 5a 3a
       -0.032145362 -0.0896263 -0.092085905 0.0008327044
000020 47 8a a7 bd 72 4d e5 3b e6 f5 11 be ba f2 af bd
       -0.08180671 0.0069977576 -0.14253959 -0.08591218
000030 f9 b2 95 bd e2 bc 5e bd 49 b7 1d be f4 6e 64 bd
       -0.07309527 -0.05437935 -0.15401949 -0.055769876
000040 17 2a 06 be 2a 96 12 be 3c dd 9b bc 96 bd 1d be
       -0.13101994 -0.14315096 -0.019026391 -0.15404353
000050 77 1a c0 bd a0 17 81 bc 2c 09 ee bd 2b b9 21 be
       -0.09380048 -0.015758336 -0.11622843 -0.15793292
000060 04 bb e1 bd 0a 91 54 bd e2 66 b2 bd a6 29 40 bc
       -0.110219985 -0.051896133 -0.087110296 -0.01172868
000070 ab 5f 05 be 9d 53 ff bd 38 e3 06 be 4f aa 5e bc
       -0.13024776 -0.1246712 -0.13172615 -0.013590409
000080 45 e5 ec bd 0f 13 0b be eb 11 02 be 29 89 82 bd
       -0.11567167 -0.13581489 -0.12702148 -0.063738175
000090 d1 38 0b be 63 db d1 bd d1 85 fe bd 58 89 64 bd
       -0.13595892 -0.10246923 -0.12427867 -0.055795044
0000a0 0d f4 d5 bd 1f cd 31 be 0d fa c4 bc 03 ab 2a be
       -0.104469396 -0.17363404 -0.024045015 -0.16666798
0000b0 6a 25 b3 bd 6a d1 c0 bd 22 e7 c8 bd 51 b1 1f be
       -0.087473705 -0.094149426 -0.0980971 -0.15594985
0000c0 e8 ce 08 be 8b a7 74 bd 40 d9 99 bd b1 24 80 bd
       -0.13360178 -0.059730094 -0.0751214 -0.06256998
0000d0 b4 2f e9 bd a4 30 17 bd 9d f2 8d bd 04 2d 95 3b
       -0.11386052 -0.03691162 -0.069310404 0.0045524854
0000e0 44 60 95 bd 86 54 b5 bd 7e c1 e3 bd bf 3e 9e bd
       -0.07293752 -0.08854012 -0.1112089 -0.077268116
0000f0 3c bb ac bd f1 2d 00 bb 64 8d af bd ca c5 00 bd
       -0.084341496 -0.0019558633 -0.0857189 -0.031438626
000100 68 49 43 bd a8 f6 dd bd ae c9 9d bd 8c ae fb bd
       -0.047677428 -0.108380616 -0.07704483 -0.122891515
000110 b7 27 01 be 6c 77 2e be 86 cc 14 be 50 35 9f bd
       -0.12612806 -0.17037743 -0.14531144 -0.077738404
000120 0d cd ef bd 35 11 22 be 1f 4e ee bd 98 22 df bd
       -0.11709032 -0.15826876 -0.11635994 -0.1089527
000130 46 0c 8e bd b1 e4 13 be 81 d8 fb 3b e7 f1 ba bc
       -0.06935935 -0.14442708 0.0076857214 -0.022820426
000140 6c 5d 1f be 76 59 91 bd c5 40 02 be 7c 4b e6 bd
       -0.15562981 -0.070971414 -0.1272002 -0.11244866
000150 3b 66 07 be 07 f3 10 bd 47 cd 10 bd 64 3f 71 bd
       -0.13222592 -0.03538802 -0.035352018 -0.058898345
000160 06 08 f1 bd e4 70 65 bc e0 5c c5 bc 2f d1 1a bc
       -0.117691085 -0.014003966 -0.024092138 -0.009449287
000170 e9 28 ca bd b0 82 01 bd 81 f9 83 bd 18 92 06 be
       -0.09871084 -0.031618774 -0.064440735 -0.13141668
000180 f2 8b 15 3b 7b 49 a3 3b d3 0c 0f be 09 39 11 be
       0.002281901 0.004983125 -0.13969736 -0.14181913
000190 6f 98 1b be b2 81 4d 3c f2 94 8c bd 80 12 24 be
       -0.15194868 0.012543129 -0.068643466 -0.16022682
0001a0 c4 87 22 be c5 2c 7f bc 77 25 d3 bd 97 10 c8 bd
       -0.15872103 -0.015574639 -0.1030988 -0.09768789
0001b0 09 51 14 be af d0 b0 bd 35 cd 55 bd da 73 d2 bd
       -0.14484037 -0.08633553 -0.052197654 -0.10276003
0001c0 81 9d 26 be 43 0c 53 bc 92 e2 d4 b9 dc 95 5b bc
       -0.1627102 -0.012881341 -0.000406046 -0.0134024285
0001d0 c6 0e ce 3a f9 cd d7 bd c9 42 33 be 34 9f e2 bc
       0.0015720956 -0.10537333 -0.17505945 -0.027663805
0001e0 cd 23 0d be cd 02 f5 bc b8 d0 78 bd c4 7c 13 bd
       -0.13783188 -0.029908562 -0.060745925 -0.036007658
0001f0 14 f7 d1 bd 4f 99 49 3c b9 62 e7 bd b3 21 fd bd
       -0.102522045 0.012304618 -0.11298127 -0.12359943
000200 03 bf 1f be 5b c4 26 bd 54 22 02 bd 9f 2b 0f be
       -0.15600209 -0.040714603 -0.03177102 -0.13981484
000210 12 81 a0 bd 68 be c4 bd c8 50 e9 39 1a 4a 26 be
       -0.07837118 -0.096066296 0.0004450141 -0.16239205
000220 1c d7 0a be 1a a4 da bd e2 af 67 bd 7b 86 1f be
       -0.1355862 -0.10675831 -0.05656422 -0.15578644
000230 b8 06 35 be e5 48 18 be 15 19 70 bd ae fd cf bc
       -0.17678344 -0.14871557 -0.05861767 -0.025389519
000240 6d 25 2d be 95 3b 5e 3b 76 52 0e 3c a5 3a 07 be
       -0.16908808 0.0033910025 0.008686652 -0.13205965
000250 a0 e4 fb bd 64 8b 6d bd c6 84 37 bc 58 24 cd bc
       -0.12299466 -0.05799426 -0.011201089 -0.025041744
000260 40 d3 86 bd 4a 21 d1 bc f4 e8 9b bd e5 a2 50 bd
       -0.065832615 -0.025528569 -0.07612792 -0.0509366
000270 39 28 ea bd 3e fb 00 bd 6f 20 17 39 e5 92 81 bd
       -0.11433453 -0.031489603 0.00014412565 -0.06326846
000280 de e1 4d bd 1a b3 2a 3b 1e dd 10 bd 1f 9e f8 bc
       -0.05026423 0.0026046694 -0.035367124 -0.030348836
000290 b6 1c f4 bd e7 2c 1c bc 97 2f db bd cf 58 10 be
       -0.11919539 -0.00953219 -0.107024364 -0.14096378
0002a0 98 00 6a bd a0 17 87 b9 fa 24 3c bd 06 bb 21 bd
       -0.057129472 -0.00025766809 -0.0459337 -0.039485
0002b0 f9 b5 93 bd 31 e0 e8 bd 9e 73 ff bc ba 64 b7 bd
       -0.07212443 -0.11370886 -0.03118306 -0.08954759
0002c0 09 88 1e be 93 8c 6f bd 22 43 f5 bd a2 e3 9e bd
       -0.15481581 -0.05848367 -0.11975695 -0.07758261
0002d0 ec e3 ae bd 35 aa 0c be 78 dc 0c be 15 00 50 3b
       -0.085395664 -0.13736804 -0.13755977 0.003173833
0002e0 07 df f5 bd 11 eb ff bd 7b 0d 0b be 59 a6 fa bd
       -0.1200543 -0.12496007 -0.13579361 -0.122387595
0002f0 96 66 19 bc 25 de a7 bd 01 1c d7 bd 47 73 e4 bd
       -0.009362837 -0.081966676 -0.10503388 -0.111548
000300 0d b4 a1 bc a5 c0 99 bd aa cf 0a be ad a6 e2 bc
       -0.019739175 -0.07507447 -0.1355578 -0.027667368
000310 6f f0 1b be ca 4a a1 bd f5 57 31 bd 1a 5e 90 bd
       -0.15228437 -0.07875593 -0.043296773 -0.070491984
000320 92 ce c8 bd 5a 03 00 be b9 66 2e be 3b 16 f5 bd
       -0.09805025 -0.12501279 -0.17031373 -0.11967131
000330 cf e3 36 bd a8 98 02 be c9 97 7e bd b8 54 d1 ba
       -0.04465085 -0.12753546 -0.062156472 -0.0015970683
000340 2a b0 96 bb cc 34 ec bd 29 fa f5 bd 7e a9 35 3c
       -0.004598637 -0.11533508 -0.12010605 0.011087773
000350 f0 cc 92 bc 72 c9 c1 bd 00 1b e4 ba 04 b3 36 be
       -0.017919987 -0.09462251 -0.0017403066 -0.17841727
000360 9f 61 17 be 37 7a 2e be 54 19 01 be b4 ff 21 be
       -0.14783333 -0.17038809 -0.12607318 -0.15820199
000370 e9 95 f8 bd 97 88 9f bd f0 fc 81 bd b2 1d 9c bd
       -0.12137968 -0.07789724 -0.06347072 -0.076228514
000380 95 9e 83 bd 42 81 19 be 1c e8 8f bd 1a 44 15 be
       -0.064267315 -0.14990714 -0.07026693 -0.1457676
000390 0e 52 27 be f9 d2 88 bc 44 45 95 bd 85 49 aa bd
       -0.16339895 -0.016702162 -0.07288602 -0.08314804
0003a0 d4 9f e3 bd fe 61 79 bc 81 af 20 bc 46 c7 71 37
       -0.11114469 -0.015221117 -0.009807468 1.4411116e-05
0003b0 1d 45 d0 bd eb 22 a0 bc 52 e3 b8 bd 6c 96 1e be
       -0.10169432 -0.0195479 -0.09027733 -0.15487069
0003c0 d3 04 bf bd 9f 53 78 bd 82 68 83 bd f0 e6 05 bd
       -0.09327092 -0.060626622 -0.06416418 -0.032690942
0003d0 1a 05 f8 bd f1 61 49 bd d4 ca 2a be cc fa b1 bd
       -0.12110348 -0.04916567 -0.16678935 -0.08690414
0003e0 c9 89 25 be 8f 78 82 bd 60 7c b8 bd 5c 3f 2d be
       -0.16165842 -0.06370651 -0.09008098 -0.16918701
0003f0 97 4c 67 bd d8 24 8c 3c 3f cf 24 bb 32 59 fe bd
       -0.056469526 0.017107412 -0.0025147942 -0.124193564
