AI/recommend/model/cocktail_recommender.pt (torch, 308024 bytes, 4 tensors)

fc1.weight f4 [128, 297]
0.038762458 -0.013982019 0.051756855 0.086747564 -0.01622208 0.11337339 0.070891604 -0.013016453
0.04069999 0.02449763 0.0016382817 -0.0041689896 -0.046784833 -0.07837435 -0.05591205 -0.0895442
-0.009445954 0.09724662 -0.030563388 -0.012654881 -0.06089946 0.033303574 0.006262141 0.04689893
0.01847976 -0.021870341 0.020948876 0.041179508 -0.0007786202 0.11011075 -0.060992736 0.03587907
-0.0028199805 -0.05502057 -0.089641556 -0.0016540816 -0.0074196393 0.05494967 0.026369909 0.05402455
-0.032823447 0.114949256 8.028672e-05 0.030639436 0.063189134 -0.050821256 -0.06640947 0.024984533
0.019643338 0.014756881 0.0011075328 0.038598884 0.012792333 0.025912508 0.026332721 0.03326298
0.017919296 0.08477346 0.081866615 0.073614486 0.009392673 0.0060516195 -0.012534574 -0.03620395
-0.014557142 -0.031667233 0.09264923 -0.018870909 -0.08199433 0.036277086 0.075148284 -0.03863317
-0.07186197 0.026691794 0.0453164 -0.018295012 0.007609675 0.033489536 -0.04892238 -0.030101674
-0.024000013 -0.0185054 0.084073536 0.0512507 0.01533512 -0.04978606 -0.0033369465 -0.028302595
-0.04582823 0.01583466 0.08012142 -0.012814568 -0.06331346 0.08697162 0.06323737 0.0153075205
0.059527647 0.016983477 -0.012019121 -0.016465072 0.033720188 -0.025451425 0.065724894 0.09009908
0.07246582 0.07087753 0.054833617 -0.047116406 0.029516336 -0.03947913 0.07733986 0.0069429213
-0.041923463 -0.059313253 0.010635637 0.12976521 0.034589574 -0.03687809 0.0650566 0.04294597
0.013644236 -0.0002380629 -0.06421394 0.0018981091 0.11747508 -0.06344723 0.067945704 0.08128884
0.058772363 0.0696521 -0.045606054 0.037617166 -0.048893385 0.11004433 0.05341338 -0.007865071
-0.04555305 0.0641283 -0.019698074 0.02166124 0.06673102 -0.048036084 0.027714187 0.027373891
0.053337228 0.014158696 -0.03449618 -0.05306993 -0.0014370183 -0.025056554 -0.020624543 -0.0007436645
0.10337922 0.027145458 -0.05663895 0.024922669 -0.006260487 0.077845 0.11784938 -0.00506366
-0.029718362 0.026677372 0.123767935 0.007952004 0.021383014 0.005677775 0.07702141 0.036967296
0.02511661 -0.028716547 0.03859515 0.06278729 0.025667083 -0.022583395 -0.019969426 0.09295537
-0.061691433 -0.011011199 0.030037541 -0.028557012 0.047415067 -0.0045031947 -0.049943864 0.005961452
-0.017499695 -0.027975159 0.089556694 0.07111543 -0.07639544 -0.025123782 0.05913263 0.05886614
0.10951803 0.04544159 0.017924294 -0.0393207 0.05186115 0.051097535 0.02188109 0.092022285
0.03654174 0.024534527 0.064395554 -0.024536118 0.095226556 -0.03680261 -0.022199392 -0.010205818
0.012129729 0.038821254 0.03414946 -0.006923118 0.029549282 0.03152191 0.024754807 0.045830153
-0.049549494 0.0036617843 -0.034040146 0.0011471158 0.02398852 -0.04895395 0.012117307 -0.023938961
0.005631363 -0.024392927 0.060017273 -0.03554165 -0.055956364 -0.006016309 -0.05546365 -0.0393861
0.059827752 -0.0430997 0.043059412 0.02222237 0.046242543 -0.011333754 0.018309968 -0.040307395
0.036015056 -0.024148129 0.0032980253 0.08352369 0.028679173 -0.041993644 0.012241326 -0.034653146
-0.029430294 0.03268871 -0.062192213 0.041004915 0.029796494 0.0138271535 -0.03218306 -0.06740128
00000000: 62c5 1e3d d714 65bc fffe 533d b5a8 b13d
00000010: 2be4 84bc 4f30 e83d 9e2f 913d f642 55bc
00000020: 08b5 263d 41af c83c 9dbb d63a 059c 88bb
00000030: 74a1 3fbd bb82 a0bd 0904 65bd f362 b7bd
00000040: 34c3 1abc 3c29 c73d 1260 fabc 6b56 4fbc
00000050: b671 79bd 5469 083d a532 cd3b 1819 403d
00000060: de62 973c 6e29 b3bc fa9c ab3c d8ab 283d
00000070: 511c 4cba bf81 e13d 85d3 79bd eff5 123d
00000080: 6ccf 38bb 405d 61bd fe95 b7bd c5cd d8ba
00000090: 7220 f3bb e812 613d b505 d83c d948 5d3d
000000a0: e171 06bd 846a eb3d 9b5f a838 8eff fa3c
000000b0: 4e69 813d f329 50bd b001 88bd 5dac cc3c
000000c0: 11eb a03c d8c6 713c a22a 913a dd19 1e3d
000000d0: ef96 513c 7846 d43c b8b7 d73c c33e 083d
000000e0: 7dcb 923c b59d ad3d afa9 a73d 31c3 963d
000000f0: bae3 193c aa4c c63b d05d 4dbc 984a 14bd
00000100: 1481 6ebc 80b5 01bd e1be bd3d 2a97 9abc
00000110: a5ec a7bd 4897 143d 58e7 993d d13d 1ebd
00000120: 5e2c 93bd c0a8 da3c b09d 393d 6cdf 95bc
00000130: 955a f93b 532c 093d d562 48bd c997 f6bc
00000140: ad9b c4bc a398 97bc bf2e ac3d 41ec 513d
00000150: 2840 7b3c 78ec 4bbd acb0 5abb d8da e7bc
00000160: 62b6 3bbd b0b7 813c b316 a43d 32f4 51bc
00000170: 7daa 81bd 2d1e b23d 9882 813d 65cc 7a3c
00000180: 43d3 733d ef20 8b3c d9eb 44bc c2e1 86bc
00000190: 2e1e 0a3d 827f d0bc c69a 863d de85 b83d
000001a0: f668 943d 3d28 913d 3799 603d 22fd 40bd
000001b0: 3ecc f13c deb4 21bd 5c64 9e3d 7281 e33b
000001c0: f0b7 2bbd 74f2 72bd 1841 2e3c 2ce1 043e
000001d0: ccad 0d3d 7b0d 17bd 653c 853d 1de8 2f3d
000001e0: 138c 5f3c 86a0 79b9 9982 83bd f9c9 f83a
000001f0: c696 f03d 9ff0 81bd 1e27 8b3d c37a a63d
00000200: 4abb 703d c3a5 8e3d 6acd 3abd 7514 1a3d
00000210: 6e44 48bd ec5e e13d fdc7 5a3d 80dc 00bc
00000220: d695 3abd b355 833d db5d a1bc ea72 b13c
00000230: 46aa 883d 7cc1 44bd dd08 e33c 363f e03c
00000240: 2378 5a3d e0f9 673c de4b 0dbd db5f 59bd
00000250: 555a bcba 6743 cdbc cdf4 a8bc 7bf2 42ba
00000260: 7cb8 d33d 2760 de3c 3efe 67bd a02a cc3c
00000270: c524 cdbb 336d 9f3d 045b f13d 0fed a5bb
00000280: ec73 f3bc 818a da3c 0b7a fd3d 1f49 023c
00000290: 6e2b af3c a10c ba3b 67bd 9d3d 056b 173d
000002a0: 59c1 cd3c f73e ebbc f315 1e3d 9f96 803d
000002b0: c643 d23c d000 b9bc ec96 a3bc 635f be3d
000002c0: 28b0 7cbd 5168 34bc 4a11 f63c 65f0 e9bc
000002d0: 4d36 423d 898f 93bb f091 4cbd 4958 c33b
000002e0: 855b 8fbc 292c e5bc 8069 b73d f7a4 913d
000002f0: 3675 9cbd 64d0 cdbc 0e35 723d 9f1d 713d
00000300: fd4a e03d f620 3a3d f8d5 923c be0e 21bd
00000310: 5b6c 543d a64b 513d f93f b33c 2e76 bc3d
00000320: cbac 153d a2fc c83c d1e1 833d f8ff c8bc
00000330: 2406 c33d 55be 16bd 80db b5bc 4e36 27bc
00000340: c5bb 463c 0903 1f3d 4ee0 0b3d 53db e2bb
00000350: 5611 f23c 1e1d 013d 98ca ca3c 66b8 3b3d
00000360: 69f4 4abd 8cfa 6f3b ae6d 0bbd d25a 963a
00000370: 9383 c43c f083 48bd ab87 463c a41b c4bc
00000380: 4c87 b83b add3 c7bc acd4 753d 1f94 11bd
00000390: 8032 65bd 7524 c5bb da2d 63bd 5253 21bd
000003a0: f20d 753d 5089 30bd 115f 303d b00b b63c
000003b0: d268 3d3d 36b1 39bc c9fe 953c 5e19 25bd
000003c0: 8684 133d 4cd2 c5bc af23 583b 780e ab3d
000003d0: 96f0 ea3c 8701 2cbd d88f 483c 75f0 0dbd
000003e0: cd17 f1bc 99e4 053d 43bd 7ebd c5f4 273d
000003f0: c717 f43c 498b 623c 62d2 03bd af09 8abd

fc1.bias f4 [128]
0.050627526 0.056260973 0.05831052 0.06013969 0.07897313 0.04103549 0.030025667 0.047678392
0.014968818 0.05543485 0.017975641 0.025811376 0.06129274 0.06863598 0.011631636 0.09992918
0.056162342 0.045989804 0.078184485 0.076302364 0.099077016 0.039098352 0.05798652 0.036789957
0.055050727 0.07079278 0.061539486 0.02574048 0.097424835 0.03615658 0.033105657 0.054048214
0.054629043 0.069854505 0.06502806 0.037935413 0.01382288 0.02618549 0.068881504 0.072931714
0.059027463 0.048768025 0.04036889 0.07344612 0.038612794 0.032976057 0.08228377 0.05480857
0.029660704 0.04229286 0.0321766 0.05988983 0.07386467 0.050070886 0.107486755 0.03516584
0.05389499 0.025314562 0.076773405 0.046815343 0.036674503 0.026442727 0.102153845 0.09456797
0.039263606 0.06271374 0.038969263 0.03335162 0.10325111 0.014506748 0.06478501 0.06724085
0.06257924 0.04506256 0.036403388 0.061053045 0.036393765 0.032752108 0.05619694 0.03848954
0.023550536 0.056276843 0.079974584 0.07691028 0.10385949 0.03491079 0.076792985 0.04857925
0.042861912 0.07403327 0.037888978 0.02650511 0.08572857 0.024417313 0.06292337 0.081636906
0.058308605 0.064656556 0.078367114 0.046739064 0.021072663 0.008665717 0.03973984 0.059868608
0.05606018 0.06577703 0.06496714 0.025712552 0.04681264 0.020338409 0.018113684 0.077049315
0.055697236 0.047992144 0.07744764 0.07804496 0.068054326 0.06372235 0.054780185 0.080483206
0.045657165 0.05203021 0.017817078 0.0842835 0.037408035 0.07908688 0.04078258 -0.009448264
00000000: cf5e 4f3d e871 663d 03d7 6e3d 0955 763d
00000010: aabc a13d d414 283d 63f8 f53c 6b4a 433d
00000020: c63f 753c a70f 633d a741 933c 6172 d33c
00000030: 190e 7b3d 0591 8c3d 9e92 3e3c aca7 cc3d
00000040: 7c0a 663d ce5f 3c3d 301f a03d 6a44 9c3d
00000050: e4e8 ca3d 9825 203d 4683 6d3d 11b1 163d
00000060: df7c 613d cefb 903d d410 7c3d b3dd d23c
00000070: ac86 c73d ec18 143d cc99 073d a961 5d3d
00000080: b4c2 5f3d e10f 8f3d 6e2d 853d 2a62 1b3d
00000090: 5c79 623c f482 d63c bf11 8d3d 395d 953d
000000a0: c8c6 713d fbc0 473d d959 253d eb6a 963d
000000b0: 7328 1e3d e711 073d 6584 a83d f37e 603d
000000c0: 01fb f23c 473b 2d3d 9ccb 033d 0a4f 753d
000000d0: 5c46 973d 2117 4d3d 0422 dc3d 0e0a 103d
000000e0: fec0 5c3d 7c60 cf3c 603b 9d3d 72c1 3f3d
000000f0: 0138 163d 6b9e d83c 0936 d13d daac c13d
00000100: e0d2 203d 1070 803d 3c9e 1f3d b59b 083d
00000110: 5175 d33d b6ad 6d3c 01ae 843d 92b5 893d
00000120: 8b29 803d 8593 383d b81b 153d c212 7a3d
00000130: a111 153d 1327 063d c32e 663d 35a7 1d3d
00000140: 0eed c03c 8c82 663d b7c9 a33d 2383 9d3d
00000150: 49b4 d43d 9efe 0e3d a445 9d3d 09fb 463d
00000160: f98f 2f3d c19e 973d 7931 1b3d 3f21 d93c
00000170: 7692 af3d d106 c83c f8dd 803d 4031 a73d
00000180: 01d5 6e3d a86a 843d f07e a03d 7671 3f3d
00000190: 94a0 ac3c a7fa 0d3c 3ec6 223d c938 753d
000001a0: 5c9f 653d 1cb6 863d 7e0d 853d 21a3 d23c
000001b0: 9cbe 3f3d bc9c a63c 2663 943c 08cc 9d3d
000001c0: c922 643d 6993 443d de9c 9e3d 09d6 9f3d
000001d0: 1160 8b3d dd80 823d 3061 603d 61d4 a43d
000001e0: 0203 3b3d a11d 553d 1ff5 913c d49c ac3d
000001f0: 2b39 193d 4df8 a13d a20b 273d e4cc 1abc

fc2.weight f4 [297, 128]
0.020414123 0.028517473 -0.10128528 0.10285687 0.09773655 -0.108943745 -0.015393565 -0.14179789
0.095952 -0.013116455 0.029327804 0.183879 -0.030973412 0.07299803 -0.04898251 0.050209332
0.13817513 -0.06067437 -0.0082838675 0.0779625 0.07683858 0.13913512 -0.020958453 0.0341218
-0.086169705 -0.01374748 -0.15291928 -0.06720196 0.027340846 -0.0047796853 0.092007115 -0.0624777
0.012701808 -0.07778963 0.011744188 0.00703302 -0.0065817796 0.07664545 0.010067348 0.05521114
-0.031379912 -0.09663374 -0.057820555 0.0004683723 0.17649843 0.09135211 -0.07236211 -0.10681968
0.06251848 0.096494794 -0.037850413 0.15293054 -0.1272726 -0.06020763 -0.042738557 -0.15402235
-0.113005035 -0.048801426 0.14384638 -0.03226212 -0.09660031 0.10479436 0.00073389965 -0.11802769
0.14315696 -0.056628283 -0.06546591 0.03350587 -0.13580805 0.012758435 -0.016392525 0.06368999
-0.09521576 0.1240804 -0.06200037 0.0012676354 0.06321256 0.14150564 -0.14603558 0.050349526
-0.10474097 0.0039727655 0.09970391 0.16339287 -0.10418278 -0.16847551 0.13977712 0.056440983
0.11849601 0.070585035 0.13741124 -0.09005765 0.08990925 -0.037073344 -0.062645726 0.014922833
0.0545168 0.008037788 -0.107739955 0.0855723 0.0058691083 -0.10930963 -0.1543478 0.0381301
-0.07687004 0.13667686 0.1408178 0.04761398 0.02099326 -0.07580445 0.001628106 0.023786869
-0.08900679 -0.051797595 -0.107037656 -0.0034007442 -0.13201138 -0.06273995 -0.10703719 0.06420922
-0.064734526 -0.14913133 0.07770809 0.09618366 0.1189222 0.14245157 0.14536087 -0.077047616
-0.024181316 -0.017825196 0.03496693 -0.010392528 -0.041041095 -0.041708227 -0.07365804 -0.055265844
-0.02354595 0.0011760164 -0.005098466 0.003485542 -0.04930218 -0.016951047 -0.050760053 0.021339646
0.02102697 -0.050456397 0.09120896 0.07964279 -0.090152964 -0.019309776 -0.098900005 -0.053305723
0.09433861 0.055032764 0.0954442 0.0057906 -0.05791877 0.023572948 -0.028770216 -6.832753e-05
0.054100797 0.06282593 0.016991286 -0.0110489065 0.05292221 0.03301932 0.005500273 0.062266566
-0.06918132 -0.027013484 0.042284172 0.0027568778 -0.068438366 0.022701032 -0.028182238 0.07865617
-0.009736158 0.0696292 -0.06817618 0.017921502 0.016552463 0.048545144 0.02673311 -0.009867124
0.01686145 -0.017310454 0.047701526 -0.0095516 0.043006793 0.04262813 -0.04304893 -0.07634302
0.03228586 -0.030180903 -0.019441184 -0.025610691 -0.0036560379 0.025283238 -0.06660216 0.046586007
0.07356546 0.017360942 0.033915356 -0.02437823 -0.024879012 0.06267498 0.10576345 -0.0077210427
-0.037726 -0.10898321 0.009843743 -0.055204704 0.07775029 -0.050018884 -0.045169637 -0.077000536
0.046224404 0.0005006985 0.030621063 -0.003941481 -0.03610224 0.06908659 0.07274693 -0.05111374
0.028142514 -0.02681484 0.06828061 0.12528491 0.062058225 -0.050791457 0.027530024 -0.15081337
-0.026125375 -0.059593704 0.048977494 0.08600025 -0.011072624 0.04106866 -0.14725587 -0.10110991
0.05440754 0.008177527 -0.10139148 -0.019001901 0.0023799716 -0.10109256 -0.060354307 0.009150063
-0.010064777 -0.06990401 -0.04777616 0.0041098148 -0.0029343278 0.058221843 0.054577857 0.0098780645
00000000: 853b a73c 7a9d e93c a86e cfbd 9fa6 d23d
00000010: 1a2a c83d e61d dfbd 4b35 7cbc 7733 11be
00000020: 7b82 c43d 66e6 56bc dd40 f03c c74a 3c3e
00000030: f4bb fdbc fe7f 953d e2a1 48bd 4da8 4d3d
00000040: c87d 0d3e b085 78bd 0fb9 07bc ceaa 9f3d
00000050: 8c5d 9d3d 7079 0e3e 10b1 abbc 4dc3 0b3d
00000060: be79 b0bd 1c3d 61bc df96 1cbe 2ea1 89bd
00000070: e9f9 df3c e89e 9cbb 3a6e bc3d 9ee8 7fbd
00000080: 3e1b 503c 2b50 9fbd b26a 403c 3f75 e63b
00000090: f8ab d7bb 4af8 9c3d 85f1 243c 1425 623d
000000a0: 3988 00bd e9e7 c5bd 3fd5 6cbd de8f f539
000000b0: 01bc 343e d116 bb3d 9632 94bd 47c4 dabd
000000c0: b009 803d 109f c53d 0909 1bbd d399 1c3e
000000d0: c053 02be 479c 76bd a00e 2fbd 09b8 1dbe
000000e0: 2f6f e7bd 01e4 47bd 774c 133e 4925 04bd
000000f0: 62d6 c5bd 6d9e d63d 2c63 403a 80b8 f1bd
00000100: bd97 123e 0ff3 67bd fe12 86bd 733d 093d
00000110: 4411 0bbe c108 513c 9e49 86bc e66f 823d
00000120: 7b00 c3bd dd1d fe3d 1af4 7dbd c926 a63a
00000130: 9675 813d dbe6 103e 5a8a 15be 4e3b 4e3d
00000140: 6f82 d6bd f92d 823b 9031 cc3d 7650 273e
00000150: c85d d5bd d884 2cbe bc21 0f3e a92e 673d
00000160: 09ae f23d e38e 903d 88b5 0c3e 2570 b8bd
00000170: 5722 b83d 38da 17bd 674c 80bd e67e 743c
00000180: 024d 5f3d edb0 033c c4a6 dcbd 8840 af3d
00000190: a651 c03b badd dfbd 5a0d 1ebe 4f2e 1c3d
000001a0: 0a6e 9dbd 05f5 0b3e 8b32 103e e006 433d
000001b0: 0ffa ab3c 5d3f 9bbd 2c66 d53a aedc c23c
000001c0: 3149 b6bd b729 54bd 8f36 dbbd 05df 5ebb
000001d0: fe2d 07be ce7d 80bd 5036 dbbd 2080 833d
000001e0: 8993 84bd e2b5 18be 6b25 9f3d f0fb c43d
000001f0: 7b8d f33d d3de 113e 7bd9 143e 24cb 9dbd
00000200: e517 c6bc 2506 92bc 7c39 0f3d 6c45 2abc
00000210: b51a 28bd 3fd6 2abd 07da 96bd 705e 62bd
00000220: 70e3 c0bc 9024 9a3a 0811 a7bb b16d 643b
00000230: 15f1 49bd ecdc 8abc c6e9 4fbd 7bd0 ae3c
00000240: c140 ac3c 5eab 4ebd c3cb ba3d c21b a33d
00000250: 1ea2 b8bd 892f 9ebc 168c cabd 1a57 5abd
00000260: 9a34 c13d 096a 613d 4078 c33d 13bf bd3b
00000270: 3b3c 6dbd 0e1c c13c 84af ebbc 104b 8fb8
00000280: cc98 5d3d e2aa 803d 4f31 8b3c 7906 35bc
00000290: f6c4 583d 443f 073d a23b b43b 3a0b 7f3d
000002a0: f0ae 8dbd 624b ddbc 2b32 2d3d bcac 343b
000002b0: 6a29 8cbd 84f7 b93c 70de e6bc 7c16 a13d
000002c0: 6884 1fbc c199 8e3d f49f 8bbd 1dd0 923c
000002d0: 0899 873c 46d7 463d 65ff da3c b8a9 21bc
000002e0: 0621 8a3c a7ce 8dbc ad62 433d 507e 1cbc
000002f0: e427 303d d69a 2e3d 1354 30bd bb59 9cbd
00000300: 2e3e 043d f13d f7bc 1e43 9fbc 83cd d1bc
00000310: 239a 6fbb cb1e cf3c b766 88bd f8d0 3e3d
00000320: 7da9 963d 8938 8e3c d4ea 0a3d dbb4 c7bc
00000330: 12cf cbbc bd5b 803d 829a d83d cd00 fdbb
00000340: 9486 1abd 9732 dfbd a747 213c 541e 62bd
00000350: 8b3b 9f3d 9ae0 4cbd cc03 39bd 75b2 9dbd
00000360: cd55 3d3d 4f41 033a 06d9 fa3c 8a27 81bb
00000370: f1df 13bd 457d 8d3d 58fc 943d a45c 51bd
00000380: 218b e63c ccaa dbbc b4d6 8b3d b04a 003e
00000390: c430 7e3d b40a 50bd a586 e13c d26e 1abe
000003a0: e204 d6bc 8718 74bd a09c 483d e620 b03d
000003b0: f369 35bc 9c37 283d 3eca 16be b612 cfbd
000003c0: 71da 5e3d 09fb 053c 56a6 cfbd e0a9 9bbc
000003d0: 4cf9 1b3b 9e09 cfbd 1436 77bd 25ea 153c
000003e0: bce6 24bc d529 8fbd efb0 43bd a0ab 863b
000003f0: da4d 40bb 077a 6e3d 088d 5f3d 9bd7 213c

fc2.bias f4 [297]
-0.02479096 0.03948722 0.049313884 0.056676652 0.071159676 -0.00087692094 -0.0023056017 0.018484775
0.07382964 -0.018289885 -0.021916479 0.0608852 0.042185165 -0.0381475 -0.020277008 -0.07160154
0.018812066 -0.014968759 0.028034419 -0.029510314 0.05857522 0.013876756 -0.05215197 -0.031058049
0.007589422 -0.005739095 -0.011279542 -0.05371346 -0.035645775 0.021967316 -0.06456701 -0.062883355
-0.058194645 0.06103459 0.058181487 0.010664821 0.071774766 -0.049496364 -0.027932405 0.040376443
-0.03144384 -0.057843708 0.008054273 0.009391046 0.029903334 -0.050006103 -0.052593574 -0.06427005
0.041867897 -0.010895346 -0.011731384 0.05807152 0.04043104 0.023823163 -0.05788864 -0.017436087
0.001950687 0.036651537 -0.029546058 -0.051052567 -0.028964566 -0.064349495 0.011031086 0.032665096
0.035225004 0.016768603 0.0118312845 0.0471024 0.019243296 0.050111663 0.019593786 -0.024170445
0.009959583 0.0041526114 -0.03161136 -0.06548497 -0.008241715 0.04184391 -0.06313954 -0.06544576
-0.009459877 0.02046015 -0.047160722 0.0070061116 0.049628798 0.05553342 -0.0587193 0.0035190308
0.061352864 -0.022397354 -0.038958993 -0.06561875 0.011412088 0.031672932 -0.06986937 0.022497747
-0.02545393 0.012934474 -0.008029151 0.022931268 -0.064521395 0.019602623 -0.014839028 -0.018506577
-0.04291126 0.041030426 0.06019618 -0.044858616 -0.05296372 0.049458813 0.039491203 -0.007917096
-0.019451778 -0.0043604197 0.06911897 0.020052323 -0.031539902 0.021289267 0.02714321 -0.027758537
-0.046988584 -0.03409074 0.039136466 -0.003682905 0.07273629 0.06234637 -0.05922994 0.01361274
0.0045394856 -0.060371783 -0.001677629 0.011633863 0.0695494 0.066087194 -0.019489799 -0.014386315
0.0055431686 0.0396195 0.049065303 -0.011197839 0.050070398 -0.012879811 0.012243661 -0.013281599
-0.039923627 0.024498953 0.06823973 0.02335262 -0.015109026 0.0103331795 0.07180043 0.010152511
-0.05527705 -0.026856206 -0.035949264 -0.056133974 -0.058396198 -0.048446216 0.022156162 -0.0018072865
-0.0586568 0.030597629 0.017702842 0.020715937 -0.06916591 -0.031180354 -0.050272044 0.06210594
0.021305954 0.055773314 -0.054934785 -0.014417367 0.06937155 -0.04283072 0.007229124 -0.071125135
0.060654227 -0.022989653 -0.00396984 0.02900049 0.055307478 0.005327019 0.0024434137 0.01587251
0.03369681 0.0022613409 0.031159444 -0.04183363 0.07125962 -0.0151226595 0.051607456 -0.060992617
-0.04496018 0.009549923 -0.038821373 0.023588981 0.046121664 -0.02916128 0.055432376 -0.025612302
-0.049428236 -0.05974528 -0.009866084 0.015509091 -0.03439418 -0.00033385033 -0.03801491 0.011817371
0.046400893 -0.02004375 -0.018324481 0.025563324 -0.026444541 -0.019926086 0.03298957 0.012698199
-0.022775486 0.04951293 -0.03735952 -0.033505086 -0.0011138403 0.02470489 -0.023216046 -0.028693326
-0.00038918987 -0.011808686 -0.016372206 0.03388387 -0.03123912 -0.06348052 0.027435264 -0.060941786
-0.028173067 0.003042971 -0.04457275 -0.011395695 0.019837445 0.05946418 0.068175666 0.05750781
0.0534881 -0.05634933 0.028100722 0.0816647 0.013002732 0.021349352 -0.06199238 -0.0017470927
-0.06525491 -0.05797957 0.03557999 -0.06857867 0.012426024 -0.02006981 0.02673891 -0.039855592
00000000: 6916 cbbc 5abd 213d 5bfd 493d c725 683d
00000010: 2abc 913d 2be1 65ba 9419 17bb 626d 973c
00000020: ff33 973d abd4 95bc 308a b3bc c262 793d
00000030: 5aca 2c3d 8e40 1cbd f81b a6bc d4a3 92bd
00000040: c31b 9a3c 873f 75bc 70a8 e53c 9dbf f1bc
00000050: 92ec 6f3d 555b 633c 4e9d 55bd 736d febc
00000060: b0b0 f83b 050f bcbb d4cd 38bc a502 5cbd
00000070: 4e01 12bd cdf4 b33c b53b 84bd fdc8 80bd
00000080: 825d 6ebd 68ff 793d b64f 6e3d 80bb 2e3c
00000090: a6fe 923d b3bc 4abd 80d2 e4bc c561 253d
000000a0: 42cb 00bd 86ed 6cbd 12f6 033c e7dc 193c
000000b0: d6f7 f43c 33d3 4cbd 5c6c 57bd 04a0 83bd
000000c0: ac7d 2b3d 6582 32bc fe34 40bc 67dc 6d3d
000000d0: 059b 253d cb28 c33c a31c 6dbd 20d6 8ebc
000000e0: 32ae ff3a ec1f 163d 930a f2bc 7f1c 51bd
000000f0: 1947 edbc abc9 83bd babb 343c d6cb 053d
00000100: 1848 103d 4f5e 893c 01d8 413c 72ee 403d
00000110: 1ea4 9d3c e341 4d3d 2683 a03c 1901 c6bc
00000120: 852d 233c a112 883b ea7a 01bd fc1c 86bd
00000130: 4208 07bc 8564 2b3d 4e4f 81bd 6d08 86bd
00000140: 9afd 1abc 0b9c a73c 9a2b 41bd 8693 e53b
00000150: 9147 4b3d 0377 633d a683 70bd 8a9f 663b
00000160: 244d 7b3d a87a b7bc 7793 1fbd 2063 86bd
00000170: c4f9 3a3c 7abb 013d ac17 8fbd 324d b83c
00000180: c384 d0bc 1eeb 533c b38c 03bc 5bda bb3c
00000190: cb23 84bd ae95 a03c 651f 73bc 1b9b 97bc
000001a0: b8c3 2fbd 850f 283d 4590 763d abbd 37bd
000001b0: 7cf0 58bd 5395 4a3d 87c1 213d b5b6 01bc
000001c0: 5659 9fbc dae1 8ebb 3f8e 8d3d c544 a43c
000001d0: fc2f 01bd d466 ae3c 705b de3c df65 e3bc
000001e0: 1a77 40bd bba2 0bbd 8f4d 203d e55c 71bb
000001f0: c4f6 943d e85e 7f3d 189b 72bd f807 5f3c
00000200: f7bf 943b 6748 77bd e3e3 dbba f59b 3e3c
00000210: ea6f 8e3d b958 873d 12a9 9fbc 94b4 6bbc
00000220: 78a3 b53b 0f48 223d b3f8 483d 2477 37bc
00000230: 9e16 4d3d d805 53bc a399 483c 109b 59bc
00000240: f586 23bd 07b2 c83c 46c1 8b3d fe4d bf3c
00000250: d98b 77bc 7f4c 293c 1b0c 933d b856 263c
00000260: 306a 62bd 8c01 dcbc 893f 13bd bdec 65bd
00000270: da30 6fbd 8a6f 46bd d780 b53c 79e2 ecba
00000280: 1d42 70bd e1a7 fa3c 8d05 913c 78b4 a93c
00000290: dba6 8dbd f16d ffbc 0fea 4dbd cc62 7e3d
000002a0: d389 ae3c 8f72 643d 4c03 61bd d236 6cbc
000002b0: ac12 8e3d 446f 2fbd 4ae2 ec3b 0eaa 91bd
000002c0: 9170 783d cc54 bcbc 6e15 82bb 7092 ed3c
000002d0: 188a 623d 468e ae3b ae21 203b 1107 823c
000002e0: ab05 0a3d 0133 143b 1742 ff3c be59 2bbd
000002f0: 90f0 913d 08c5 77bc 5762 533d 65d3 79bd
00000300: 2a28 38bd 4877 1c3c 2903 1fbd ae3d c13c
00000310: 12ea 3c3d a3e3 eebc 0f0d 633d e4d0 d1bc
00000320: 4375 4abd 77b7 74bd 5ba5 21bc d819 7e3c
00000330: e9e0 0cbd a208 afb9 86b5 1bbd a59d 413c
00000340: dd0e 3e3d ca32 a4bc 391d 96bc 2d6a d13c
00000350: 39a2 d8bc 083c a3bc 1220 073d 1b0c 503c
00000360: a893 babc 12ce 4a3d 4c06 19bd a13c 09bd
00000370: 47fe 91ba e961 ca3c 942f bebc 440e ebbc
00000380: 2e0c ccb9 3879 41bc 011f 86bc d0c9 0a3d
00000390: 2fe9 ffbc 1302 82bd ebbf e03c 189e 79bd
000003a0: 34cb e6bc 956c 473b ea91 36bd 02b5 3abc
000003b0: 2382 a23c b690 733d af9f 8b3d 4f8d 6b3d
000003c0: 5716 5b3d 8ece 66bd 7c33 e63c d23f a73d
000003d0: 6909 553c d6e4 ae3c b9eb 7dbd b4fe e4ba
000003e0: 5ea4 85bd fc7b 6dbd 53bc 113d f972 8cbd
000003f0: 8696 4b3c 7169 a4bc 8f0b db3c 9e3f 23bd
